models/anode_multivortex_model.pth (torch, 124278 bytes, 24 tensors)

net.0.weight f4 [64, 9]
00000000: b250 043f 3dfc 1fbe 763d 653d 965c 46be
00000010: a637 da3d 5637 973e d202 8a3e 9247 8a3e
00000020: 6698 0abe d30e 95bc 51e0 38bf c329 843e
00000030: 6b9d 2fbd 0056 57bc 5036 253e a0a9 1abe
00000040: 26b4 0e3e 00c0 c03d 272c 1cbf 033d 40bd
00000050: 6cef dcbd db34 fb3d 307b d83d 2092 f4bd
00000060: 5b91 af3d 202b 593e 2016 343d 9e45 eb3d
00000070: 5428 fc3e e1d7 7a3e 6b36 813e 9c16 903e
00000080: 739d 8a3e 80d8 ab3c 204f 83bd 0b4c 75bd
00000090: 778b 863d a3fe 163f 91c8 31be b629 a0be
000000a0: b058 fa3d 30e1 24be 38b9 35be 3236 95be
000000b0: 58aa 7dbe 8a70 25bf 00d2 00bf 5634 91be
000000c0: ee6d 9cbe 582a a13e 803e e13c 56bd cc3c
000000d0: b753 a7be 0064 1fbd f8ed 453f c012 23bf
000000e0: 3e5e c7bd 7352 663e f2a3 93be 2898 7c3e
000000f0: 1e26 2e3e 76e5 7f3d fe8a 78be e7ed b0be
00000100: 8ca1 5e3f 6762 85be a801 223e 600e 40bd
00000110: a377 5f3e b63c b23d 26f2 2d3e 8a2b 99be
00000120: 54bd 0cbe fd6b 33bf 3c55 c23d 2b05 a83c
00000130: dbb7 93bd 906d b5bd 48e0 343e a30f 30be
00000140: 20de 553e 1de9 1ebf 3f74 2a3f 1084 95bd
00000150: ab9c 693c ef8c a73e 34f2 97be 6bd1 38bd
00000160: 5668 3c3c 3bfc af3d 1463 753d 40e3 2b3f
00000170: 44c8 9cbe b0ff 8f3d 3ea3 883e c0e3 8fbd
00000180: 5633 a7be 3bb5 743e 18d2 62be 0510 2e3f
00000190: 68a0 78bf ad0c e13e 2f3b 8f3e 53b0 773e
000001a0: b61c 12bd 161a 6cbe 9ba5 993d 9e75 35be
000001b0: 59c4 323f c52a 8ebe 6333 8f3e a699 203e
000001c0: 761c 4b3e 70e8 a8bd 84c6 933e 0052 213b
000001d0: 4287 a2be 216d c83e dd40 2a3f 4e66 f4be
000001e0: 2f99 95be bb2f 74be caac 8c3e 1b22 a3be
000001f0: 4b04 d8bd 6c8b 88be f429 053f 852a c1be
00000200: 5c1b cc3d eaec 8bbe b69c 193e 8692 633e
00000210: e00c 47be 0386 3fbe cf7d 8d3e 87ab e0be
00000220: 0098 0dbf 4118 7fbe 8098 5dbc 7bde 4a3e
00000230: 36c7 82be 9c03 81be 2e4b 7a3e 887b 95be
00000240: 791c 763e 3063 6dbf 7d0d 44be 2221 a8be
00000250: 6b38 a73e c0a3 42bd 58b8 2b3e 234e 55be
00000260: b6ff 4dbe 76e5 373d 91b2 11bf 228c abbd
00000270: c0d7 34be 6be0 31be f6fa 9e3e a69d 083e
00000280: 12b2 a13e 8c72 92be 18f2 59bd f369 23bf
00000290: 400d 86be 9602 bdbd a02b 1a3d 7f84 91be
000002a0: 20fa a33d 0b72 7ebe eec9 5ebe 0b98 a5be
000002b0: 6332 0fbf 1646 b93d 2e04 2fbe a858 2d3e
000002c0: eb5f f6bc a6b0 903e 9c16 84be 30ae b73d
000002d0: d6d7 37bc 7420 1a3e bd8e fd3d 587a 5bbe
000002e0: ab3b 973d 94cf 8abe 00ef a2bb 903a 803d
000002f0: 164e 9bbd 7b1e 993d 3eaa cbbd deac b53e
00000300: a3b0 293e 6b35 82bc d649 203e 3323 38be
00000310: e0ff a1be 92da 8d3e ad41 3c3f 74b1 f53c
00000320: 4cbe a9be 821a 8ebe 38ba 90be fc1c 9b3e
00000330: 7ed4 9a3e 0452 9abe a326 a93e a2fa 8c3e
00000340: 1378 39bf 9605 00be abd8 f73d 73c7 6cbe
00000350: 3816 2ebe 16bd e43d 0cb4 a53e ab82 1a3d
00000360: 5ee6 913d 294d 1ebe 93a2 02be 2b5c acbc
00000370: ab0e cd3c cb0f 9b3d 761f 84be 1e68 5bbe
00000380: f061 253e e404 e73e f4f9 123f c449 a33d
00000390: af6d a6be 1b58 2b3e ab32 bdbc 8646 563e
000003a0: 80c4 72be 4c93 9abe df80 863f 0986 d5be
000003b0: 0f21 adbc 006c 32bd 7b60 99bd 0b15 833e
000003c0: c2f7 a9be db36 df3d abbe 113e cb4c 02bf
000003d0: aeb3 dabe 56f5 8abe b615 343d d039 0c3e
000003e0: 4b07 3cbe 0ba5 503e cce1 843e 7e03 3cbe
000003f0: be9f 953f 2eec 2dbf abc0 96be fec2 903e
0.5168563 -0.15623565 0.055966817 -0.19371256 0.10655145 0.29534405 0.26955277 0.2700773
-0.13534698 -0.018195545 -0.7221728 0.25813112 -0.042874735 -0.013143063 0.16134 -0.1510377
0.13935909 0.09411621 -0.6100487 -0.046933185 -0.107878536 0.12265941 0.10570371 -0.11941934
0.08572646 0.21207857 0.043966413 0.11487888 0.49249518 0.24496414 0.2523683 0.2814225
0.2707325 0.020977259 -0.06411576 -0.059886973 0.065695696 0.58982295 -0.17361666 -0.31281823
0.12223947 -0.16101527 -0.17746437 -0.2914291 -0.24772012 -0.64624846 -0.50320435 -0.28360242
-0.3055262 0.31477618 0.027495623 0.024992626 -0.32681057 -0.038913727 0.77316236 -0.63700485
-0.09734772 0.2249239 -0.28836018 0.24667418 0.17006728 0.06247469 -0.24271771 -0.34556505
0.8696525 -0.26051638 0.15820944 -0.04688871 0.21822982 0.08702986 0.16986904 -0.2991603
-0.13744098 -0.7008665 0.094889134 0.020510277 -0.07212802 -0.08858788 0.17663682 -0.17193465
0.20885515 -0.6207445 0.6658363 -0.073005795 0.014258544 0.3272471 -0.29676974 -0.04512159
0.011499485 0.08593031 0.05990894 0.6714363 -0.3062154 0.070311904 0.26687044 -0.07025862
-0.32656354 0.23897259 -0.22150457 0.67993194 -0.9711976 0.43954983 0.2797484 0.24188356
-0.035671912 -0.23056826 0.0750229 -0.17720649 0.6983085 -0.27767006 0.27968892 0.15683612
0.19835076 -0.08247459 0.28862393 0.0024615526 -0.3174382 0.3914576 0.66505224 -0.47734302
-0.29218432 -0.23846333 0.27475578 -0.31861958 -0.10547694 -0.2666887 0.5201714 -0.37727752
0.09966156 -0.2732919 0.15001187 0.22223863 -0.19438505 -0.18703465 0.27635047 -0.43880865
-0.5531006 -0.24911596 -0.013525128 0.19811432 -0.2554261 -0.25198066 0.24442741 -0.2919581
0.24034299 -0.92729473 -0.1914577 -0.32837778 0.3266023 -0.047519445 0.1676954 -0.20830588
-0.20117077 0.044896565 -0.56913096 -0.083763376 -0.17660427 -0.17370765 0.31050843 0.13341388
0.3158117 -0.28603017 -0.053209394 -0.6383354 -0.26181984 -0.09229009 0.03763926 -0.284214
0.08006692 -0.24848191 -0.21756718 -0.32342562 -0.5593626 0.09046571 -0.17091438 0.16928351
-0.030075034 0.28259772 -0.257985 0.089687705 -0.011220893 0.15051442 0.12380741 -0.21433389
0.07384428 -0.27111495 -0.0049723387 0.0626117 -0.07583253 0.07476517 -0.099445805 0.3548345
0.16571288 -0.015894612 0.15653166 -0.17982177 -0.3164053 0.27705818 0.73537713 0.029991843
-0.33152997 -0.277546 -0.28267074 0.3029555 0.30240244 -0.30140698 0.3303729 0.27534968
-0.72448844 -0.12502131 0.12101873 -0.23122959 -0.17000663 0.11168878 0.32363927 0.03772227
0.07124017 -0.15459122 -0.1275733 -0.021040043 0.025031408 0.07571372 -0.25805253 -0.21426436
0.16150641 0.4512092 0.5741265 0.07973054 -0.32505557 0.16732828 -0.02309545 0.2092534
-0.23707771 -0.30190504 1.0508078 -0.41703823 -0.021133928 -0.043560028 -0.07489105 0.25601992
-0.33196837 0.10899135 0.1423289 -0.50898427 -0.4271521 -0.271403 0.043966018 0.13693929
-0.18362157 0.20375459 0.2595352 -0.18360707 1.1689374 -0.67938507 -0.2944387 0.28273767

net.0.bias f4 [64]
00000000: 7e23 3f3d b5ce 8d3e 4864 b6be 4f3f aebe
00000010: 0248 2c3e fde8 46be 5c8f 86be 95f4 bb3e
00000020: aa11 84be 134e 59be 39fe 34bd 3bb3 57bd
00000030: 3854 a1be e8da c9bd 5719 1c3e c55a 31be
00000040: a8a6 98be 5b30 5b3e 7f50 64be c65d 663e
00000050: 86e3 d53d d8dc 8d3e 15a6 dbbc 4374 0dbd
00000060: 3ae5 5bbd 50d5 7d3e 4774 33be 3d60 efbd
00000070: 0118 40bd 32ad 2d3e 8abc e4bd 2898 6bbe
00000080: e19b 13be 8047 b6bd e067 8a3d e04f fd3e
00000090: 0111 7fbe 2a86 a2be 9250 a43e b67f 2abe
000000a0: 8f89 793d 37d2 aebe d265 08bf f48f 89be
000000b0: 0215 723e 93e4 81be fc16 f83b 9dcc 373e
000000c0: 84db 973e 8d0d cb3d 1dc4 89bd ee27 5ebe
000000d0: 8ca6 14be 421f 6a3e d48f 29be da3d 8fbe
000000e0: 45a2 9a3e 0dde 3cbe bc4d 2abe 53e8 8ebe
000000f0: a298 53be 94ad a3be be31 2b3e ac5b 503e
0.046664707 0.27696767 -0.35623384 -0.34032676 0.16824344 -0.19424815 -0.2628125 0.3671004
-0.25794727 -0.21221189 -0.044187758 -0.052661162 -0.31509566 -0.09856206 0.15244041 -0.17319782
-0.2981465 0.21405165 -0.22296332 0.22496709 0.10443787 0.27707553 -0.026812593 -0.034534704
-0.053685404 0.24788404 -0.17524825 -0.11688278 -0.046897892 0.169606 -0.111687735 -0.23007262
-0.14414932 -0.08900356 0.06758094 0.49475002 -0.2490883 -0.31742984 0.3209272 -0.1665028
0.0609222 -0.34144756 -0.53280365 -0.2686764 0.23640826 -0.253697 0.0075710993 0.17949148
0.29659665 0.09914694 -0.06726859 -0.2169492 -0.14516658 0.22863486 -0.16558772 -0.27976876
0.30201927 -0.1844408 -0.16631216 -0.27911624 -0.20663694 -0.31968367 0.16718194 0.2034747

net.2.weight f4 [64, 64]
00000000: 9083 08be d463 fabd fa8d 9bbd 7819 0b3e
00000010: de36 a33e 68c7 d8bd 3e60 ec3c 1102 53bd
00000020: 64ab 54bc dd05 923d 1234 d63d f128 453d
00000030: d2e0 113e 46f8 46bd a4c3 0bbb e332 aaba
00000040: 5eb5 1ebe bb34 0ebe c5d4 5cbd 2d12 f1bd
00000050: 246d 8b3d 7bc2 2fbe ac32 82bd 0065 1ebe
00000060: ff86 d6ba 3a5d 1b3e 6578 c7bd 7741 e23c
00000070: 42d9 943d 461e a8bc f2e3 1cbe 5590 7ebb
00000080: 24a7 11bd 9bb9 0d3e 19ea 083e 392d 0ebe
00000090: 8cb5 a83c 0c3e f43d c65a b43d 4128 36be
000000a0: feeb b53d 5731 b23d e122 71bd 5a3d 9d3d
000000b0: f576 2b3d 0829 aa3d 1b61 243e 00cc 043d
000000c0: c74f 0bbe d29b 193d b5fb dcbb ca7f 1d3e
000000d0: 0c47 dfbd da97 0dbe 0f2d a53d c511 d23d
000000e0: df60 4b3d 35ee e63c 1628 afbd 60a0 e6bd
000000f0: 2741 9cbd e397 1dbe 9585 253d c527 b0bd
00000100: 6d4b 87be dfeb 823e 24a2 fdbc a47b 4fbe
00000110: 6f68 d5bd 2584 c63b 329d af3c d114 08be
00000120: a3e8 49bc 520f e5bd 9620 9dbe 49b2 063e
00000130: 095c 0dbe 6e33 36be bc4f 5c3d a463 09be
00000140: 3075 1dbe 0715 e43d e3b8 3fbe 384e 743e
00000150: d67b 023e 188d ff3d be09 babe e01e 383e
00000160: 3550 09bd 71f9 6b3d 8941 93bd cc30 9b3d
00000170: a666 ebbd 239a c53d 76ef 4a3c e7cb 66be
00000180: 1c24 4f3d 7e77 313c 67f6 023e 555c f43e
00000190: e13b 3fbd e906 83be c174 f93d 883d 243e
000001a0: 3a02 38bb ac2e 9dbe dded 0ebf 823d a93d
000001b0: 35b2 84bd 9764 16be bf1a 6bbd e06b 213e
000001c0: f5c5 263e fd0d cc3d 2ddd ae3d 5741 84be
000001d0: 39a9 373e 04cb ab3e 2e57 0abf 3cae 47be
000001e0: 98a9 c53d 5a44 da3c 060f 33bd 25f7 d73d
000001f0: b89d fe3d 1710 97bb 3590 89be 0887 a63d
00000200: 1612 84bd 7f2e 12bd 2c83 5bbd 312d a93c
00000210: ff3c 06be 16a5 593d ae31 b0bd 9f58 9fbc
00000220: 6586 083e 1c46 993d 48da 073c 9ae9 25be
00000230: 8da0 a1bd 78e2 2b3d 3561 10be 23f4 babc
00000240: 2982 94bd 0a56 573d 1196 47bc 6c2d 763c
00000250: c762 d8bd 2a8e 6dbd 35da 10bd fb6d bdbd
00000260: f4f2 9c3d a18b efbd b684 ecba 7409 8f3d
00000270: 7f47 45bd 213c 23be 3e1f 053e 2cf0 b73c
00000280: 5aa5 e13d 3341 8a3d ce98 813d c654 6a3d
00000290: af33 92bd 724d a1bc c09b 5abe d8aa 283e
000002a0: 7df4 e23c 08bc 0a3c fbc8 ba3c a70d 063d
000002b0: 66ba c4bd 8c44 a33d 06e5 b8bd d670 e1bc
000002c0: 5c0e a7bd 9df8 8d3d 2270 243d fab2 0ebe
000002d0: d4a3 063e c558 9d3d b5fe abbc 62e3 ddbd
000002e0: 0858 01be 86a0 f03a e653 d03d 1d06 05bc
000002f0: 096b 14be 9d29 7dbd 961f d03d b7d8 06be
00000300: f367 d83e fd76 53be b02a f7bd c883 7b3d
00000310: ea26 053e 8319 7c3d 6b12 c63e 21cf 64be
00000320: b840 303d d987 63be 86ee 673e 301e 0c3e
00000330: a045 083f 6c3e cb3e 9f51 cc3e 7a33 95bd
00000340: b12c f03e 0c64 a4bb 3b7e 0c3e 1eeb e2bd
00000350: b5cb 71bd aeb2 ecbd 12db 733e 8284 8d3b
00000360: 7e2d 8f3d 9ec8 edbd 274b a73e 86dd 2ebe
00000370: dde8 a83e c810 143d 17f9 8a3e 467c 033e
00000380: 4453 03bc 991f 3ebd b70a 5fbe a5f3 92be
00000390: 0601 ef3c e672 f33d 9711 5b3e cc0f d9be
000003a0: f31d b8be 510c 003e 3a10 1a3f 45dc b1bd
000003b0: ce30 2b3e 1290 073e 301d 03be 2c2a 0e3d
000003c0: ad44 8c3d 0d09 013d 2b6b 0c3e b6a5 fc3e
000003d0: 662e eebe 85da e4bd 458a c13e 52d8 2eba
000003e0: d5f1 dabd 109b 51be fea7 4e3d 9f5e 6b3e
000003f0: 9a55 053e 0a45 4dbe 964b e53c 60df 913e
-0.13331437 -0.12226072 -0.07595439 0.13583934 0.31877798 -0.10584909 0.028854486 -0.051515643
-0.012980316 0.071300246 0.104591504 0.048134748 0.14245918 -0.048576616 -0.0021326328 -0.0012985136
-0.15498874 -0.13887303 -0.05391385 -0.11771045 0.06807926 -0.17164032 -0.06357321 -0.15468216
-0.0016367136 0.15172282 -0.0973976 0.027619107 0.07268001 -0.020522248 -0.15321329 -0.0038843353
-0.03555979 0.13840334 0.13370551 -0.13884439 0.02059438 0.11925897 0.08806376 -0.17788793
0.088829026 0.08700817 -0.058871154 0.076777175 0.041861493 0.08308607 0.16052668 0.032421112
-0.13604651 0.037502117 -0.006743873 0.15380779 -0.10902223 -0.13827458 0.08065235 0.102572955
0.04965293 0.028189758 -0.08552568 -0.11261058 -0.07629614 -0.15389971 0.040410597 -0.086013354
-0.26424733 0.2557058 -0.030961104 -0.20262009 -0.1042031 0.0060582333 0.021437261 -0.13289191
-0.012323531 -0.11184563 -0.30688924 0.13153948 -0.1380464 -0.17793056 0.053786978 -0.13416916
-0.15376735 0.11136823 -0.18722872 0.23857963 0.12742552 0.12478083 -0.36335558 0.17980528
-0.033523757 0.057610933 -0.07190234 0.07577667 -0.11494188 0.0964854 0.0123861935 -0.2253872
0.050571546 0.010831712 0.12789308 0.47726694 -0.046687964 -0.2559121 0.12180472 0.16039097
-0.00280775 -0.3069967 -0.558317 0.08263685 -0.06479303 -0.1468681 -0.057398554 0.15763807
0.16286452 0.099636056 0.0853828 -0.258311 0.17935647 0.33553326 -0.54039276 -0.19500059
0.09651488 0.02664392 -0.0437155 0.10545186 0.12432426 -0.0046100724 -0.26867834 0.08131224
-0.06448762 -0.035688873 -0.053591892 0.020651432 -0.13109206 0.053135954 -0.08603226 -0.019451438
0.13332517 0.074840754 0.008291788 -0.16202393 -0.07891951 0.041964024 -0.14099582 -0.022821492
-0.072513886 0.052572288 -0.012181775 0.015025478 -0.10565715 -0.057996906 -0.03536435 -0.09249493
0.07663527 -0.11696554 -0.0018044922 0.06984225 -0.048163887 -0.15940906 0.13000199 0.02245339
0.110178664 0.06750717 0.06327973 0.057209753 -0.07138764 -0.01969025 -0.21348476 0.16471422
0.027704472 0.008467682 0.022800913 0.032727864 -0.09605865 0.07972059 -0.09028058 -0.027519625
-0.08157036 0.06932185 0.040146 -0.13935462 0.13148433 0.07682947 -0.020995477 -0.108343855
-0.12631238 0.0018358387 0.10172252 -0.008119133 -0.14493956 -0.061807264 0.101622745 -0.13168608
0.42266807 -0.20650859 -0.12068689 0.061404973 0.13003126 0.061547767 0.38685927 -0.22344638
0.04303047 -0.2221979 0.22649583 0.1368339 0.5323124 0.39696062 0.39906022 -0.07285209
0.46909097 -0.0050168093 0.13720028 -0.11080001 -0.05903216 -0.11557518 0.23814037 0.0043187747
0.06991099 -0.1161053 0.32674524 -0.17076692 0.3299016 0.036148816 0.27143165 0.12840375
-0.008015458 -0.046416853 -0.21781431 -0.2870151 0.029175293 0.118871495 0.21393429 -0.42394865
-0.3596035 0.12504698 0.6018101 -0.08684591 0.16717836 0.13238552 -0.12804103 0.034708187
0.06849036 0.031502772 0.13712756 0.49345177 -0.46519774 -0.11174492 0.37800804 -0.00066698075
-0.10690657 -0.20469308 0.05045318 0.22985314 0.13020936 -0.20045868 0.027990144 0.28490734

net.2.bias f4 [64]
00000000: ab0a 2bbe b434 583e cc30 253d 5c4e d73a
00000010: 590b 383e 377c 173e fa87 e53d d594 bc3d
00000020: 8fd7 a9bd 85b9 d9bd b9eb 723d fc15 8fbd
00000030: f81e 10bd 2345 ccbd 1c54 8c3d a14e cebd
00000040: 59f2 31bd 3125 833d 5994 bf3c 9848 20bd
00000050: b48c 13bd beb1 5fbd af51 eebd 72c6 b4bd
00000060: 43ce 2d3e a91c 6ebd eb2e 9a3c 8aee 8f3d
00000070: 2132 d43c 3599 bb3c c66d 19bd b223 0ebe
00000080: e618 013e e45e b3bd 9a41 06be 0d37 a83d
00000090: 6f12 9e3d de38 ab3c 464e 3a3a df69 d63d
000000a0: a931 bdbc ef8f f93d a547 fcbc 4b11 113e
000000b0: f9d0 99bd f534 babd ad2d 403d 18df 8dbd
000000c0: 2adf c23d ed0f 003e 7856 26be 5ef6 2e3d
000000d0: 7386 5f3d e156 d8bb 4a00 50bd 8fb4 353d
000000e0: c21e 82bd 5954 6e3d a770 ba3d 89a5 173d
000000f0: f2f8 e2bd 2c41 803d c75e 9abd 7459 803d
-0.16703288 0.21113855 0.04032974 0.0016426551 0.17973079 0.14793478 0.11207576 0.09208075
-0.08293068 -0.10631088 0.059306834 -0.06986615 -0.035185784 -0.09974124 0.0685198 -0.10073591
-0.04344401 0.06403578 0.023386167 -0.03913173 -0.036022857 -0.054612868 -0.11636674 -0.08826913
0.16973214 -0.0581328 0.0188212 0.070279196 0.02590281 0.022900203 -0.037458204 -0.13880804
0.12607154 -0.08758333 -0.13110963 0.08213625 0.0771836 0.02090114 0.00071070006 0.10469412
-0.023094969 0.12185656 -0.030795882 0.14166753 -0.075105615 -0.09092132 0.04691856 -0.069273174
0.095152214 0.12506075 -0.16243923 0.042715423 0.05457158 -0.0066021536 -0.050781526 0.044361647
-0.06353523 0.05818591 0.09103518 0.0370231 -0.11082639 0.062624305 -0.075376086 0.06267062

net.4.weight f4 [64, 64]
00000000: c4a7 85bd 3266 9ebc 1623 a13d a034 543e
00000010: 525f f0bb f9b3 eebd f347 db3c 1ae4 fb3d
00000020: 3a98 a7bc 5999 863b 2f28 04bd 007f 323b
00000030: 7d97 00bd 0608 f53b fc97 aabd 7d6d 893d
00000040: 077b 053e 95ad b33d b452 f93d c1c0 353d
00000050: bef6 c43c cd9f a03d 9267 443d 8c34 5ebd
00000060: 2382 5abd 57d1 88bd e75c a63c 51b1 da3d
00000070: ab80 1e3d 28d3 fabd 6195 0fbe bc0c 6bbd
00000080: 6b44 333d 83ee a43d 33bd 9bbd b10c d43d
00000090: cbd1 a63d 19bd f53c 4070 1abb a1de eabc
000000a0: 3ecc f6bc 92ba ddbd 1ba8 7fbd 18d7 07be
000000b0: 871f 16bb 5078 1d3d 40b6 d6bd c4c6 31bd
000000c0: ce9b c2bd 71a7 0c3c 9599 ccbd 55d8 233c
000000d0: 8fed 8d3d 6b61 7b3d 9411 d2bd a76b 7c3d
000000e0: e411 9f3d fb9e f43d d5d2 64bd 1cba 46be
000000f0: c36c 623d 7d52 7c3d 8ac1 c13d 3c5c 07bd
00000100: 4962 ce39 bb46 3dbe 8942 75bd 7321 3b3e
00000110: d65b 5dbd 506f b13d 3695 833b 53a3 c4bd
00000120: 7ee5 cbbd ee55 46bd abda 16bb 0051 05bd
00000130: bf6a cbbd bef0 4bbd 1fc2 a13c 2133 ee3c
00000140: 3b7d 8bbc bd8c c6bd 8611 983d 610c 44bd
00000150: 5f7c 06bd b647 29be 9491 85bd 78a4 fcbd
00000160: 21bb b23d 0b5a 263e 527a a33d e3b4 88bd
00000170: 24f8 093e 0679 173d 52f6 e8bd b0f2 893d
00000180: 7a36 afbd 5a88 25bd a5c9 cb3d 1ac1 f63d
00000190: f44e 063e 070a 853c ff6a 413d fa82 a6bd
000001a0: 8203 143b 4b93 c83d adab 26bd 8afa 833d
000001b0: 9079 e0bd cb94 edbd 1194 9cbb 9a6e 083b
000001c0: d7d5 cbbc dbb7 03be 3509 983d 4b77 c73d
000001d0: 3aa5 013e c312 023e f686 a63d 90aa 30be
000001e0: c151 bb3d 8093 353d 1222 36bd 855b a4bd
000001f0: a42c de3c 441d cb3d 9e11 803d 4354 14bd
00000200: 8949 d73c f73b 213d 8fe8 d93d 93bb 07be
00000210: dd26 303e 8f8f 003d da9e f33d 48d7 b43d
00000220: ff1d d03d 14c4 823d c2d9 4d3d 816d 12be
00000230: 6d36 593e 9df7 a5bb 9efe 7fbe 3601 95bd
00000240: 883b 143d f8df 8fbc 68b7 0ebe b11f 50bd
00000250: cfb3 8b3d 822c e53d ec9c d33e 6b58 9d3d
00000260: 8eb6 d9bd fa57 c1bd 58eb 56be 9807 4b3d
00000270: d959 a0be a8f0 cd3d 9ff1 c33d 76f9 e93c
00000280: 0bfd 4d3d c7f4 b8bd f319 4e3d 62d0 963d
00000290: 5a1e 7f3c 3c85 053d f170 99be dd5b 5a3d
000002a0: e0c5 03be 8a27 29be 988d 69bc 3764 903d
000002b0: 0af9 cdbd 4343 2e3e 90aa 55bc 5f94 b93d
000002c0: da36 bb3b ae84 60bc e610 20be 90ca 3cbe
000002d0: af55 1b3e 8b32 9bbe 15cb 16be 5f5d 1a3d
000002e0: eddb 81bc fc38 523c e23b 073e cd76 b7bc
000002f0: 7931 fb3e 81d8 1d3d 815f 283e cf0a 473c
00000300: 7ecf e8bd e03d 8bbd 0b2f c03c 348b bfbd
00000310: a660 8dbd 91d2 853d 7eb3 10be 6896 213e
00000320: c3c7 90bd e1a0 093e d8bf eb3d 39e8 6b3d
00000330: c8cb 05bd 59ee f93d a560 503d 9243 94bd
00000340: d1d2 ee3d 0f54 a73d 6487 50bd 414b 17bd
00000350: de23 eabb eeb2 78bd 92dc 08be a3d2 86bc
00000360: b690 9abc fb80 5bbb 5227 d63d a616 603d
00000370: 1ae9 09be e64a 13be 3132 423d 446f 253e
00000380: 34de c93d d1f9 04be 7e6c 113e e6c5 7fbd
00000390: ccd1 4bbc ad23 d1bc 931b b83d 29a9 203c
000003a0: ec53 b8bd e807 683c 9781 e2bd 3180 833d
000003b0: d8c3 ab3d 1130 f53d 3541 173d d5b8 dbbc
000003c0: 8e8d 833d 1ece 85bd 6dce ec3c 3a3f 2e3d
000003d0: 3f0c 2cbe d27f b63d f889 b83b 48cb 663d
000003e0: 54f7 d6bd f76f 843b cc1a 7bbc 41c8 3ebd
000003f0: a1cf a83d 5625 bdbd 6667 193e cd98 baba
-0.065261394 -0.01933584 0.0786802 0.207232 -0.007335582 -0.11655421 0.026767706 0.12299366
-0.02045833 0.004107636 -0.032264885 0.0027236342 -0.03139447 0.007477763 -0.0832977 0.06710336
0.13035212 0.087733425 0.121739775 0.044373278 0.024043437 0.078429796 0.047950335 -0.05424933
-0.053346764 -0.066805534 0.020307971 0.10678352 0.038696926 -0.12247306 -0.14021827 -0.05738519
0.04376642 0.08053305 -0.07604446 0.10353983 0.081454836 0.029997395 -0.0023565441 -0.02867061
-0.030126687 -0.10826601 -0.062416177 -0.13265646 -0.0022906975 0.038444817 -0.1048398 -0.04340245
-0.09502374 0.008584843 -0.09990231 0.010000308 0.06930076 0.061372202 -0.10257259 0.061626103
0.07767084 0.119443856 -0.055865128 -0.19406933 0.055279505 0.061602104 0.09460743 -0.033046946
0.0003936461 -0.18484013 -0.059877906 0.18274479 -0.05404266 0.08663809 0.00401559 -0.09601464
-0.099558815 -0.048421793 -0.002301852 -0.03254795 -0.099324696 -0.049790137 0.019745884 0.029077115
-0.017027488 -0.096948124 0.07425217 -0.047863368 -0.032833453 -0.16531262 -0.065219074 -0.123360574
0.08727098 0.16245286 0.07982315 -0.066751264 0.13473564 0.03698065 -0.11375107 0.06735742
-0.085553125 -0.040413238 0.0995057 0.1204855 0.13116056 0.016240133 0.04722118 -0.081304505
0.0022585099 0.09793719 -0.040691067 0.06444271 -0.10960686 -0.11600646 -0.004778393 0.0020817877
-0.02488224 -0.12863104 0.07423631 0.0973955 0.12660685 0.1270247 0.081312105 -0.17252564
0.09146453 0.04433012 -0.044466086 -0.080252685 0.027120896 0.09917691 0.0625336 -0.03621317
0.026280181 0.039363828 0.1064006 -0.13255148 0.17202325 0.03138691 0.11895533 0.08830124
0.10161971 0.06385055 0.0502565 -0.14299585 0.21212168 -0.005064918 -0.24999472 -0.072756216
0.036189586 -0.017562851 -0.13937151 -0.050811473 0.06821405 0.1119013 0.4133066 0.0768288
-0.10630523 -0.09440608 -0.20988214 0.04956779 -0.31318548 0.10055667 0.0956757 0.028561335
0.05029015 -0.090310626 0.050317716 0.073639646 0.015571201 0.032597765 -0.2996898 0.053310264
-0.12868452 -0.16518989 -0.01425495 0.070503645 -0.10057266 0.17017846 -0.013041154 0.09061503
0.005713326 -0.013703508 -0.15631446 -0.18436646 0.15169404 -0.30312 -0.14725907 0.037686702
-0.01585194 0.012830969 0.13206437 -0.022395516 0.49061182 0.038536552 0.16442682 0.012148573
-0.11367701 -0.06798911 0.023459932 -0.09352723 -0.069032 0.06534303 -0.14130971 0.15780032
-0.070693515 0.13440277 0.11511201 0.05759451 -0.032665044 0.12203664 0.050873417 -0.072394505
0.11661304 0.0817033 -0.05091037 -0.036937002 -0.007145389 -0.060717516 -0.13365391 -0.016457861
-0.018867832 -0.0033493626 0.104567185 0.0547091 -0.13467827 -0.1438404 0.047411148 0.16155726
0.09856835 -0.12985922 0.14201543 -0.06244459 -0.012440156 -0.025529707 0.08989634 0.009805956
-0.09000382 0.014162041 -0.110598736 0.06420935 0.083869636 0.119720586 0.03692742 -0.026821533
0.06423484 -0.06533454 0.028907025 0.042540766 -0.16801547 0.089110985 0.0056316815 0.056346208
-0.10496393 0.0040416676 -0.015326213 -0.046577696 0.08242727 -0.09235637 0.1498085 -0.0014236212

net.4.bias f4 [64]
00000000: c7df c03d 19bb b63d 63be 8b3d 9631 8f3d
00000010: 5c38 85bd 9c88 92bd 187b 9ebd 5b09 9c3d
00000020: 9c49 85bd 00f6 863d 849e bb3d a4a4 093e
00000030: e17e 893d b7ac abbd 1377 61bd a434 c73d
00000040: 9463 98bd e27e 943d 8125 17be 55d4 033e
00000050: 0a8f 8dbd 92a6 49be f509 0cbd 434d 16bb
00000060: 7bd0 89bd 1bf1 353d b06c 8a3d 35ad 34bc
00000070: c111 46bd f917 1e3e 235a 993c 232c f238
00000080: b1df a53d f694 b9bd c379 133e 2da3 163e
00000090: 5d13 7fbd f067 ed3c 9934 70bc a4d1 0dbe
000000a0: 81cc 63bd e5d1 24bd 4423 86bd 4cd8 f33b
000000b0: 9e08 1ebe 9b40 d33d 72e7 5cbc ddba b6bd
000000c0: dea2 13be 15c1 c03c 24e0 923c 770e 4ebd
000000d0: eddb adbd f1f2 7ebb 7c23 f939 3f47 c3bd
000000e0: a8f5 c6bd 69f9 8f3d 3200 033d d9cf 013d
000000f0: db62 303d bff4 103c a636 6d3d bc8b 093e
0.09417682 0.08922405 0.06823423 0.0699188 -0.0650489 -0.071549624 -0.07738322 0.07618972
-0.065081805 0.065898895 0.09161094 0.13441712 0.06713653 -0.08382552 -0.0550452 0.09726837
-0.07440868 0.072507635 -0.147604 0.12873967 -0.06912048 -0.19692448 -0.034189183 -0.0022934235
-0.067292176 0.04441939 0.06759012 -0.011027624 -0.048356775 0.15438832 0.018719738 0.0001154768
0.080993064 -0.09061615 0.14401917 0.14710684 -0.062274326 0.028980225 -0.014660978 -0.13849503
-0.055614952 -0.040239234 -0.06549695 0.007441556 -0.15432975 0.10315057 -0.013482915 -0.0892236
-0.14417598 0.023529569 0.017929144 -0.050306763 -0.08489213 -0.0038902129 0.0004751942 -0.095350735
-0.09714824 0.07029993 0.03198261 0.03169236 0.043063026 0.0088474145 0.057913445 0.1343221

net.6.weight f4 [8, 64]
00000000: d5cb 503d 1451 3e3e 86b1 443c af9c f1bc
00000010: d603 093e 9604 7d3e 5001 5fbd c866 113d
00000020: 8cc3 e93d faae 803d 54e9 1ebe b90f 9d3d
00000030: 40b0 abbd 2619 d6ba bef2 81bd 67b7 9b3c
00000040: 50fc b2bd d9fe 5abd 04f4 e1bb 4a29 2cbe
00000050: 21a2 84bd 1cb5 803d b382 d1bd f6e7 db3d
00000060: 02ff 7cbd 1746 06bd b004 d6bd 8205 9bbc
00000070: 92f1 1d3e cebe 19bd 95f2 48be 5e29 8a3d
00000080: 9b34 073d 6b2f 3d3b b526 a3bd 15a6 b7bc
00000090: ee6f 63be a2ac 313e 8563 c8bd d6ce cebd
000000a0: 6a3c e63c 68d4 34bd 56fb ccbd e623 e7bd
000000b0: 2e7e a9bd 29b8 573d cf36 dc3d 6227 2ebe
000000c0: 6058 c53b 8a57 1a3a 3480 40be 85af abbd
000000d0: c2f9 33be 9d4a 1a3e 7a8c 363e ab4d a73d
000000e0: 79e0 93bd e5d2 1cbe 24b2 60bd 0914 82bd
000000f0: f7b5 88bb dbaa ca3d f395 cbbd bbcd 04be
00000100: 2049 ddbd 4794 a8bd 459f 18be ec06 da3c
00000110: d227 a13c e0d7 9cbc b713 053e 99a7 bebd
00000120: e050 5cbe e515 873c 6ab9 2b3e e323 243d
00000130: 5672 523d e3e1 c8bb 4c16 c1bd ddef d93b
00000140: 0432 81bd f2e3 6ebd c7be 5e3e e9f8 c6bd
00000150: a3aa 43bc 3929 373d 4606 33bd 347a fd3d
00000160: 7a96 cdbd 204d 78bb 162c fbba 5697 29be
00000170: bcea 01bd 2f6e b8bd 264e e73d 738d 143e
00000180: cc45 893d 9bdf 063e 0fa8 98bd 661c 06be
00000190: ac7a 84bd 74bf bd3d edc7 2e3d 4410 8fbd
000001a0: 656f 0e3e 34ca 883d 2113 a7bc b841 a23d
000001b0: 894b 3f3d c063 a9bd 8a09 e3bd 503f 66bb
000001c0: d923 0c3e 3c65 1cbe 194a babd 6e6b 9f3d
000001d0: 6cda e03d bff4 5a3d 1f17 e6bd 05df ef3d
000001e0: 126c 7dbd 5c75 c73d 8a24 8bbd 1c79 b1bd
000001f0: d243 bcbd 7d8a 46bd bd54 7e3e f91f aabe
00000200: 20ea fc3d 3a01 a1bd c6fa c3bd 386f a3bc
00000210: d879 193d 9c43 b93d 50b5 68bc b0bc a9bc
00000220: bc50 b6bd 8a15 81bd a660 edbd 8c2e e13d
00000230: 9cad 5dbd 84e0 a6bd fa04 f33d 327b 8d3d
00000240: 6470 523d 885d 72bd ea1e c5bd d0f1 373c
00000250: 30c2 82bc 5ac0 883d cccd 33bd 7e0c efbd
00000260: 30a8 d3bc 548d d63d 982b da3d bcf4 f13d
00000270: 809f 96ba 1038 933c 505e 473d 902c f2bc
00000280: 8a56 a0bd 34aa ea3d a051 5fbc e0b6 e73d
00000290: 4c7d bf3d 70f3 b73d 90a5 943d c8de bcbd
000002a0: 1097 d6bc 0c9f 50bd 305d 06bd f8c1 0fbd
000002b0: 90a3 88bd f68d f93d 2c07 0f3d 7861 98bc
000002c0: f8b7 d33c f8db 013d ac0b 5e3d 6c5a e83d
000002d0: 74d5 3dbd 04cf f83d 92fd 85bd 7007 95bc
000002e0: 10e3 dd3d d493 693d c0d5 7fbc beb9 e13d
000002f0: 9032 843d 8014 263b 1ccc 053d 00d4 48bc
00000300: beea d8bd 902a 703c eca8 9dbd c408 c53d
00000310: f417 553d e88a 6abd c4d0 713d 445b 1d3d
00000320: 761b ea3d 4ca7 3d3d 40f4 e93b a064 2a3d
00000330: 38b8 04bd 104e 633c 5896 e8bc 20ee 683d
00000340: 14c8 d93d 8060 2b3c fe52 8dbd 180e 80bd
00000350: aca2 a93d 085b 733d 746d 833d e012 cfbb
00000360: 9031 6bbc 625a c83d a847 de3c 4083 833d
00000370: 741c 513d a824 6cbd a4cb cebd ac4e e83d
00000380: 3e5c 8abd 2895 52bd 60ea 4ebc 74cc ba3d
00000390: 96bf f7bd 309f ae3c 66e4 8f3d 1618 fa3d
000003a0: 7e72 a1bd 083d 4b3d 32cf fd3d 8e54 ac3d
000003b0: 1012 b43d e01a c83c 6a4a c53d 78d7 f13c
000003c0: d4e7 553d a03a 613c eaea bf3d 787f a53d
000003d0: 9cb1 14bd c0b7 693c c2b0 a13d 7e02 ae3d
000003e0: 882e eabd 2026 01bd 7e01 aebd 40b1 3b3b
000003f0: d0d9 7dbd 6a43 823d d819 ce3d 405b a0bb
0.05097564 0.18585616 0.0120052155 -0.029493658 0.1338037 0.2470878 -0.05444461 0.03549841
0.11414251 0.06283374 -0.15518695 0.076690145 -0.083832264 -0.0016334399 -0.063451275 0.019008351
-0.08739531 -0.053465698 -0.006895544 -0.16812626 -0.06476236 0.06284544 -0.10230007 0.107376024
-0.061766632 -0.032781687 -0.10450113 -0.018923525 0.15424183 -0.03753548 -0.19623788 0.067461714
0.033009153 0.0028867375 -0.07966367 -0.022418061 -0.22210667 0.1735101 -0.09784607 -0.100980446
0.02810498 -0.04414788 -0.10008876 -0.11286144 -0.0827602 0.052665863 0.107526414 -0.17007211
0.006022498 0.0005887678 -0.18798906 -0.08383087 -0.17575744 0.15067525 0.17827025 0.08169111
-0.07220549 -0.15314825 -0.05485739 -0.06351478 -0.0041720825 0.09895869 -0.0994071 -0.12969105
-0.10804963 -0.08231407 -0.14904507 0.026614629 0.019672308 -0.019145906 0.12995802 -0.093093105
-0.21515226 0.016489932 0.16769949 0.040073287 0.05137857 -0.0061304434 -0.09428081 0.0066509084
-0.06308368 -0.058322854 0.21752463 -0.097154446 -0.011942538 0.044717047 -0.043707155 0.12376824
-0.10038467 -0.0037887767 -0.0019162919 -0.16561636 -0.031718 -0.09005391 0.112942025 0.14507084
0.06702766 0.13171236 -0.0745393 -0.1309677 -0.0646871 0.092650324 0.042671133 -0.06985524
0.13909681 0.06679192 -0.020394864 0.07922691 0.046702895 -0.08270979 -0.11085804 -0.0035132952
0.1368555 -0.15272993 -0.09096164 0.077841625 0.10979161 0.053456064 -0.11234879 0.117124595
-0.061870642 0.097391814 -0.06794079 -0.08665678 -0.09192623 -0.048471916 0.24837013 -0.33227518
0.12349343 -0.07861562 -0.095693156 -0.019950494 0.037469715 0.090460986 -0.0142033845 -0.020719856
-0.089021176 -0.063029364 -0.115907 0.10995206 -0.054120645 -0.08148292 0.118661836 0.06908263
0.051376715 -0.05917123 -0.09625037 0.011227086 -0.015961736 0.06677313 -0.043897435 -0.116723046
-0.025837034 0.10476175 0.10652846 0.118142575 -0.0011491627 0.017971069 0.048673928 -0.029562265
-0.07829006 0.11458245 -0.013630301 0.113141775 0.0935007 0.08981979 0.07258141 -0.0922218
-0.02619508 -0.05093293 -0.032803714 -0.035097092 -0.06671822 0.1218528 0.03491895 -0.018601164
0.02584456 0.03170392 0.05421035 0.113453716 -0.046346143 0.1214886 -0.06542505 -0.018192023
0.10834324 0.057025746 -0.015614927 0.11021756 0.064549565 0.0025341809 0.032665357 -0.012257576
-0.105916485 0.014658585 -0.07698235 0.096208125 0.052024797 -0.057261378 0.059036985 0.038417116
0.11431019 0.046302125 0.0071397126 0.04159987 -0.032402247 0.013873592 -0.028392002 0.05686772
0.10633865 0.010460019 -0.06900595 -0.06252688 0.0828298 0.059412986 0.06417361 -0.0063193887
-0.014355078 0.09782864 0.027133778 0.06421518 0.051052526 -0.057652146 -0.10097435 0.113431305
-0.06755875 -0.051411778 -0.012629122 0.091210276 -0.12097089 0.02131614 0.070259854 0.12211625
-0.07883166 0.04961875 0.12393035 0.08414565 0.08792508 0.024426877 0.09633334 0.029521689
0.05222304 0.013746887 0.09370978 0.08080953 -0.036302194 0.014265001 0.07895042 0.08496569
-0.114346564 -0.0315305 -0.08496378 0.0028639585 -0.0619753 0.063605145 0.10063523 -0.0048936903

net.6.bias f4 [8]
00000000: f49e 80bc 090f e43d 8092 2bbb ba15 dbbd
00000010: 3461 193d 4880 f83d be7e 95bd b83b 6ebd
-0.015700795 0.1113568 -0.002617985 -0.106975034 0.037446216 0.12133843 -0.07299565 -0.05816242

exp_avg f4 [64, 9]
00000000: 4836 b732 1a75 1335 dbca 33b2 0000 0000
00000010: 0000 0000 0000 0000 0000 0000 0000 0000
00000020: 0000 0000 47b5 89b2 0cf7 a933 df9b 0b33
00000030: 0000 0000 0000 0000 0000 0000 0000 0000
00000040: 0000 0000 0000 0000 29eb 2734 8887 abb4
00000050: cca0 82b3 0000 0000 0000 0000 0000 0000
00000060: 0000 0000 0000 0000 0000 0000 219f f033
00000070: 4b41 66b4 bb6c ebb3 0000 0000 0000 0000
00000080: 0000 0000 0000 0000 0000 0000 0000 0000
00000090: d31d 6633 6100 afb1 89a6 7cb1 0000 0000
000000a0: 0000 0000 0000 0000 0000 0000 0000 0000
000000b0: 0000 0000 5fb3 c733 8556 81b3 7083 3ab3
000000c0: 0000 0000 0000 0000 0000 0000 0000 0000
000000d0: 0000 0000 0000 0000 ddd5 5333 8bf7 9233
000000e0: 7f3c a332 0000 0000 0000 0000 0000 0000
000000f0: 0000 0000 0000 0000 0000 0000 0386 5533
00000100: b476 c3b3 98d5 7233 0000 0000 0000 0000
00000110: 0000 0000 0000 0000 0000 0000 0000 0000
00000120: 3c66 9e33 7536 18b4 dbcd a4b2 0000 0000
00000130: 0000 0000 0000 0000 0000 0000 0000 0000
00000140: 0000 0000 f762 0834 3ef2 6ab3 21b6 7332
00000150: 0000 0000 0000 0000 0000 0000 0000 0000
00000160: 0000 0000 0000 0000 c2f1 8cb4 cb68 1434
00000170: a250 ea33 0000 0000 0000 0000 0000 0000
00000180: 0000 0000 0000 0000 0000 0000 1e56 23b3
00000190: 78ff 9533 2f92 8bb3 0000 0000 0000 0000
000001a0: 0000 0000 0000 0000 0000 0000 0000 0000
000001b0: 594b 2f33 f91c 1933 dfbf 6cb3 0000 0000
000001c0: 0000 0000 0000 0000 0000 0000 0000 0000
000001d0: 0000 0000 17a9 5eb4 94ed 6834 d6eb 1334
000001e0: 0000 0000 0000 0000 0000 0000 0000 0000
000001f0: 0000 0000 0000 0000 815e 07b4 32ef 7e33
00000200: 5bb8 ce32 0000 0000 0000 0000 0000 0000
00000210: 0000 0000 0000 0000 0000 0000 d448 d034
00000220: f4b5 0cb5 7a11 38b0 0000 0000 0000 0000
00000230: 0000 0000 0000 0000 0000 0000 0000 0000
00000240: cbf9 b733 5063 19b3 7325 5d33 0000 0000
00000250: 0000 0000 0000 0000 0000 0000 0000 0000
00000260: 0000 0000 8ffa 2534 4ecd eab3 a51f 43b3
00000270: 0000 0000 0000 0000 0000 0000 0000 0000
00000280: 0000 0000 0000 0000 85a6 13b2 bba5 3a33
00000290: a53d 80b3 0000 0000 0000 0000 0000 0000
000002a0: 0000 0000 0000 0000 0000 0000 e278 7db1
000002b0: cee1 4cb3 4e6c 7db3 0000 0000 0000 0000
000002c0: 0000 0000 0000 0000 0000 0000 0000 0000
000002d0: e1f2 1834 e365 1cb3 11f5 ca31 0000 0000
000002e0: 0000 0000 0000 0000 0000 0000 0000 0000
000002f0: 0000 0000 2c49 c2b3 47a1 97b3 68af 4132
00000300: 0000 0000 0000 0000 0000 0000 0000 0000
00000310: 0000 0000 0000 0000 e8dd 5233 0171 81b4
00000320: c552 86b3 0000 0000 0000 0000 0000 0000
00000330: 0000 0000 0000 0000 0000 0000 ff14 03b3
00000340: e617 1cb3 531e 49b3 0000 0000 0000 0000
00000350: 0000 0000 0000 0000 0000 0000 0000 0000
00000360: 43f2 9834 9af5 0eb5 7bdc c5b0 0000 0000
00000370: 0000 0000 0000 0000 0000 0000 0000 0000
00000380: 0000 0000 ca4a 9bb4 08d5 0535 678f ccb2
00000390: 0000 0000 0000 0000 0000 0000 0000 0000
000003a0: 0000 0000 0000 0000 dd4c 0db3 705a fbb1
000003b0: ef66 feb2 0000 0000 0000 0000 0000 0000
000003c0: 0000 0000 0000 0000 0000 0000 967e 6734
000003d0: fc80 8fb1 ed5a b4b2 0000 0000 0000 0000
000003e0: 0000 0000 0000 0000 0000 0000 0000 0000
000003f0: ea75 4633 d733 05b3 e5d8 d433 0000 0000
2.1328688e-08 5.493217e-07 -1.0465295e-08 0.0 0.0 0.0 0.0 0.0
0.0 -1.6031334e-08 7.914613e-08 3.2505223e-08 0.0 0.0 0.0 0.0
0.0 0.0 1.5638638e-07 -3.1949844e-07 -6.0828455e-08 0.0 0.0 0.0
0.0 0.0 0.0 1.1204816e-07 -2.1444173e-07 -1.0962818e-07 0.0 0.0
0.0 0.0 0.0 0.0 5.3578173e-08 -5.0932134e-09 -3.676549e-09 0.0
0.0 0.0 0.0 0.0 0.0 9.299287e-08 -6.0227684e-08 -4.342604e-08
0.0 0.0 0.0 0.0 0.0 0.0 4.9321773e-08 6.8436826e-08
1.9003208e-08 0.0 0.0 0.0 0.0 0.0 0.0 4.971481e-08
-9.101987e-08 5.6539278e-08 0.0 0.0 0.0 0.0 0.0 0.0
7.376045e-08 -1.4175914e-07 -1.9185725e-08 0.0 0.0 0.0 0.0 0.0
0.0 1.270199e-07 -5.470269e-08 1.4185873e-08 0.0 0.0 0.0 0.0
0.0 0.0 -2.6252934e-07 1.3821698e-07 1.0911141e-07 0.0 0.0 0.0
0.0 0.0 0.0 -3.8029718e-08 6.984823e-08 -6.4992825e-08 0.0 0.0
0.0 0.0 0.0 0.0 4.081389e-08 3.564944e-08 -5.5122538e-08 0.0
0.0 0.0 0.0 0.0 0.0 -2.0736876e-07 2.1693114e-07 1.3776238e-07
0.0 0.0 0.0 0.0 0.0 0.0 -1.2607235e-07 5.935653e-08
2.4065391e-08 0.0 0.0 0.0 0.0 0.0 0.0 3.8796009e-07
-5.241884e-07 -6.6963646e-10 0.0 0.0 0.0 0.0 0.0 0.0
8.5670386e-08 -3.5713413e-08 5.1489632e-08 0.0 0.0 0.0 0.0 0.0
0.0 1.5457975e-07 -1.0933819e-07 -4.5430756e-08 0.0 0.0 0.0 0.0
0.0 0.0 -8.594388e-09 4.345723e-08 -5.9716776e-08 0.0 0.0 0.0
0.0 0.0 0.0 -3.688506e-09 -4.770282e-08 -5.9004655e-08 0.0 0.0
0.0 0.0 0.0 0.0 1.4244462e-07 -3.6414246e-08 5.9068346e-09 0.0
0.0 0.0 0.0 0.0 0.0 -9.047139e-08 -7.0608216e-08 1.1273961e-08
0.0 0.0 0.0 0.0 0.0 0.0 4.9096258e-08 -2.4110344e-07
-6.254917e-08 0.0 0.0 0.0 0.0 0.0 0.0 -3.051991e-08
-3.6343316e-08 -4.682654e-08 0.0 0.0 0.0 0.0 0.0 0.0
2.8488475e-07 -5.325652e-07 -1.4396301e-09 0.0 0.0 0.0 0.0 0.0
0.0 -2.8925416e-07 4.985636e-07 -2.3813937e-08 0.0 0.0 0.0 0.0
0.0 0.0 -3.2899028e-08 -7.315343e-09 -2.96163e-08 0.0 0.0 0.0
0.0 0.0 0.0 2.1559603e-07 -4.1765116e-09 -2.0996106e-08 0.0 0.0
0.0 0.0 0.0 0.0 4.620771e-08 -3.1013624e-08 9.911472e-08 0.0

exp_avg_sq f4 [64, 9]
00000000: 3e23 0d2d 3d98 be2e e536 e52a 0000 0000
00000010: 0000 0000 0000 0000 0000 0000 0000 0000
00000020: 0000 0000 ea1f 472c a832 1b2c 7e6e ed2b
00000030: 0000 0000 0000 0000 0000 0000 0000 0000
00000040: 0000 0000 0000 0000 07e5 302d 4fc5 fb2d
00000050: 2c6a 802c 0000 0000 0000 0000 0000 0000
00000060: 0000 0000 0000 0000 0000 0000 3ae1 262d
00000070: bbd5 852d 4e28 8e2c 0000 0000 0000 0000
00000080: 0000 0000 0000 0000 0000 0000 0000 0000
00000090: 878a 542d 1d4a 362d 598b ce2c 0000 0000
000000a0: 0000 0000 0000 0000 0000 0000 0000 0000
000000b0: 0000 0000 780d 4c2b 7ba3 cf2c 19c6 092c
000000c0: 0000 0000 0000 0000 0000 0000 0000 0000
000000d0: 0000 0000 0000 0000 7356 172c 3458 282c
000000e0: 5b9b 202b 0000 0000 0000 0000 0000 0000
000000f0: 0000 0000 0000 0000 0000 0000 158b e52b
00000100: 544c ee2b d9dc dd2c 0000 0000 0000 0000
00000110: 0000 0000 0000 0000 0000 0000 0000 0000
00000120: 8924 672c 8a22 d32c c667 f42b 0000 0000
00000130: 0000 0000 0000 0000 0000 0000 0000 0000
00000140: 0000 0000 ae51 3b2d 3352 6c2c 3b92 082d
00000150: 0000 0000 0000 0000 0000 0000 0000 0000
00000160: 0000 0000 0000 0000 d3ed d12d 6923 352d
00000170: 8480 972c 0000 0000 0000 0000 0000 0000
00000180: 0000 0000 0000 0000 0000 0000 1274 e42b
00000190: 8387 2a2b ddde 372c 0000 0000 0000 0000
000001a0: 0000 0000 0000 0000 0000 0000 0000 0000
000001b0: ed7b 272c f04d 4f2b 5432 a62c 0000 0000
000001c0: 0000 0000 0000 0000 0000 0000 0000 0000
000001d0: 0000 0000 94f1 2c2d 71c8 842d 6a3c 982c
000001e0: 0000 0000 0000 0000 0000 0000 0000 0000
000001f0: 0000 0000 0000 0000 f674 0f2d 25eb 8c2c
00000200: e82d dc2b 0000 0000 0000 0000 0000 0000
00000210: 0000 0000 0000 0000 0000 0000 8fe7 cd2e
00000220: f52a 002f 94cd df2b 0000 0000 0000 0000
00000230: 0000 0000 0000 0000 0000 0000 0000 0000
00000240: 86df 942c 2cac e52b 0078 502c 0000 0000
00000250: 0000 0000 0000 0000 0000 0000 0000 0000
00000260: 0000 0000 a912 b92c 25d1 062d 182f c52b
00000270: 0000 0000 0000 0000 0000 0000 0000 0000
00000280: 0000 0000 0000 0000 4cec 732c 2899 9e2b
00000290: 7832 772b 0000 0000 0000 0000 0000 0000
000002a0: 0000 0000 0000 0000 0000 0000 1e42 3e2b
000002b0: 3eac 532b b27f a12b 0000 0000 0000 0000
000002c0: 0000 0000 0000 0000 0000 0000 0000 0000
000002d0: 9e4e 952d ca95 bd2d ae9e 322c 0000 0000
000002e0: 0000 0000 0000 0000 0000 0000 0000 0000
000002f0: 0000 0000 b2cc 7e2d 3dd5 c32c 99fa b42b
00000300: 0000 0000 0000 0000 0000 0000 0000 0000
00000310: 0000 0000 0000 0000 bc40 6d2c 6971 872d
00000320: b336 4c2c 0000 0000 0000 0000 0000 0000
00000330: 0000 0000 0000 0000 0000 0000 d216 f92b
00000340: 343e 012c 815c 072c 0000 0000 0000 0000
00000350: 0000 0000 0000 0000 0000 0000 0000 0000
00000360: 55da 7d2e 5442 b42e 1fe9 082c 0000 0000
00000370: 0000 0000 0000 0000 0000 0000 0000 0000
00000380: 0000 0000 2905 1d2e d406 d12e 28b0 302c
00000390: 0000 0000 0000 0000 0000 0000 0000 0000
000003a0: 0000 0000 0000 0000 572f b22a a7b4 092c
000003b0: 0a42 322b 0000 0000 0000 0000 0000 0000
000003c0: 0000 0000 0000 0000 0000 0000 b590 182e
000003d0: 86bb 512d dc21 0b2c 0000 0000 0000 0000
000003e0: 0000 0000 0000 0000 0000 0000 0000 0000
000003f0: 34fb 0c2c e1d7 8e2b ef25 bc2c 0000 0000
8.022747e-12 8.6672426e-11 4.0716662e-13 0.0 0.0 0.0 0.0 0.0
0.0 2.8297317e-12 2.2054945e-12 1.6870531e-12 0.0 0.0 0.0 0.0
0.0 0.0 1.0055296e-11 2.8623019e-11 3.6497663e-12 0.0 0.0 0.0
0.0 0.0 0.0 9.486018e-12 1.5215265e-11 4.0403575e-12 0.0 0.0
0.0 0.0 0.0 0.0 1.2081564e-11 1.0361959e-11 5.870343e-12 0.0
0.0 0.0 0.0 0.0 0.0 7.249405e-13 5.901444e-12 1.9578837e-12
0.0 0.0 0.0 0.0 0.0 0.0 2.150638e-12 2.3923198e-12
5.705902e-13 0.0 0.0 0.0 0.0 0.0 0.0 1.6310032e-12
1.6932102e-12 6.305717e-12 0.0 0.0 0.0 0.0 0.0 0.0
3.2847355e-12 6.0008153e-12 1.7366046e-12 0.0 0.0 0.0 0.0 0.0
0.0 1.0647856e-11 3.3583247e-12 7.763175e-12 0.0 0.0 0.0 0.0
0.0 0.0 2.3866164e-11 1.02965214e-11 4.3059462e-12 0.0 0.0 0.0
0.0 0.0 0.0 1.623259e-12 6.0584193e-13 2.6129578e-12 0.0 0.0
0.0 0.0 0.0 0.0 2.380092e-12 7.3649333e-13 4.7235913e-12 0.0
0.0 0.0 0.0 0.0 0.0 9.830709e-12 1.5095676e-11 4.326807e-12
0.0 0.0 0.0 0.0 0.0 0.0 8.1545794e-12 4.0051456e-12
1.5644682e-12 0.0 0.0 0.0 0.0 0.0 0.0 9.363454e-11
1.1656794e-10 1.5902162e-12 0.0 0.0 0.0 0.0 0.0 0.0
4.231229e-12 1.6319216e-12 2.9625191e-12 0.0 0.0 0.0 0.0 0.0
0.0 5.260088e-12 7.6634575e-12 1.4010763e-12 0.0 0.0 0.0 0.0
0.0 0.0 3.4663548e-12 1.1269085e-12 8.782207e-13 0.0 0.0 0.0
0.0 0.0 0.0 6.7593316e-13 7.520129e-13 1.1475181e-12 0.0 0.0
0.0 0.0 0.0 0.0 1.6974252e-11 2.1553332e-11 2.5383406e-12 0.0
0.0 0.0 0.0 0.0 0.0 1.448368e-11 5.5659075e-12 1.2859324e-12
0.0 0.0 0.0 0.0 0.0 0.0 3.371566e-12 1.5398087e-11
2.9020508e-12 0.0 0.0 0.0 0.0 0.0 0.0 1.7698848e-12
1.8366532e-12 1.9236004e-12 0.0 0.0 0.0 0.0 0.0 0.0
5.7719458e-11 8.1972346e-11 1.945617e-12 0.0 0.0 0.0 0.0 0.0
0.0 3.570225e-11 9.5054326e-11 2.510889e-12 0.0 0.0 0.0 0.0
0.0 0.0 3.1652e-13 1.9569153e-12 6.332995e-13 0.0 0.0 0.0
0.0 0.0 0.0 3.4689324e-11 1.1921913e-11 1.9771884e-12 0.0 0.0
0.0 0.0 0.0 0.0 2.0034642e-12 1.0149625e-12 5.347493e-12 0.0

exp_avg f4 [64]
00000000: fac7 33b2 f69a 0b33 aaa0 82b3 a26d ebb3
00000010: 7d5b 7cb1 2083 3ab3 093e a332 d2d9 7233
00000020: 6cce a4b2 21b7 7332 fa51 ea33 2e92 8bb3
00000030: a1be 6cb3 efeb 1334 91b8 ce32 479d 37b0
00000040: 2b25 5d33 5020 43b3 1f3d 80b3 d46c 7db3
00000050: cafa ca31 64b9 4132 0952 86b3 fd1c 49b3
00000060: a884 c5b0 f397 ccb2 7c65 feb2 5555 b4b2
00000070: 65d7 d433 94a7 3332 3170 2233 eeaf b2b2
00000080: fd62 0a31 bf66 32b3 157c 7933 b748 4eb3
00000090: 49fb 97b2 5bb7 5133 3561 52b3 9fdf 8232
000000a0: d3b3 96b3 db8b 5232 ab30 d633 f124 34b3
000000b0: 32a7 b232 85df 7db3 d85e 3ab2 99f1 db33
000000c0: 9ef8 90b2 61a5 6133 5848 8732 5593 64b3
000000d0: c7da 71b1 2ab9 8133 9b0f b733 a65f e932
000000e0: 11c4 e2b2 9f62 19b2 61a3 b831 5a88 5033
000000f0: b856 deb2 4e50 4032 3541 63b3 995a 0cb3
-1.0464641e-08 3.2504396e-08 -6.0828214e-08 -1.0962982e-07 -3.6722831e-09 -4.3425757e-08 1.9003908e-08 5.6543122e-08
-1.9185983e-08 1.41861e-08 1.09113856e-07 -6.499282e-08 -5.5121408e-08 1.3776274e-07 2.4065487e-08 -6.6798517e-10
5.1489376e-08 -4.5431364e-08 -5.971582e-08 -5.900513e-08 5.907485e-09 1.12762315e-08 -6.2547834e-08 -4.6825324e-08
-1.437134e-09 -2.3817824e-08 -2.9615641e-08 -2.0993562e-08 9.911199e-08 1.0457274e-08 3.78206e-08 -2.080193e-08
2.0137911e-09 -4.15373e-08 5.8087682e-08 -4.8029246e-08 -1.7692985e-08 4.8828365e-08 -4.8982844e-08 1.5235683e-08
-7.017629e-08 1.2255408e-08 9.974004e-08 -4.1943114e-08 2.0797959e-08 -5.9109443e-08 -1.084819e-08 1.02419285e-07
-1.6876864e-08 5.2537306e-08 1.5748967e-08 -5.3219384e-08 -3.5194476e-09 6.040712e-08 8.52444e-08 2.7168266e-08
-2.6399023e-08 -8.928196e-09 5.373679e-09 4.8552785e-08 -2.5883637e-08 1.119413e-08 -5.291186e-08 -3.2678688e-08

exp_avg_sq f4 [64]
00000000: e036 e52a 7f6e ed2b 2d6a 802c 4828 8e2c
00000010: 598b ce2c 1ac6 092c 5c9b 202b dadc dd2c
00000020: bf67 f42b 3f92 082d 8180 972c d9de 372c
00000030: 4a32 a62c 733c 982c f82d dc2b 98cd df2b
00000040: 0a78 502c 102f c52b 7632 772b b77f a12b
00000050: b19e 322c 99fa b42b b736 4c2c 7e5c 072c
00000060: 1de9 082c 29b0 302c 0f42 322b da21 0b2c
00000070: f425 bc2c f0c2 aa2b 891d a52b 8ced 1c2c
00000080: d6fe 242b cd4d ac2b f731 5a2c cde3 5f2b
00000090: 60a5 122c eea7 092c b18e 062c 8ef0 232d
000000a0: 90cb 2d2c b7c5 132c 5cc9 202c 88c1 7d2c
000000b0: 3832 942a 3347 2f2c 1a6a f62b c1de 072d
000000c0: 477e 1f2c cb35 502c 55bf ba2b 237f 592d
000000d0: d20c 8a2c 0a2f dc2b 7b7b 502c 6944 c42a
000000e0: f940 192b e5ff 1d2a 4ace 2e2c ad9d ee2b
000000f0: 230d 772c e425 982c c44c 192c 625e 682b
4.071665e-13 1.6870532e-12 3.6497667e-12 4.040355e-12 5.870343e-12 1.957884e-12 5.7059023e-13 6.3057172e-12
1.7366038e-12 7.763178e-12 4.305945e-12 2.612957e-12 4.723587e-12 4.326811e-12 1.5644699e-12 1.5902167e-12
2.9625213e-12 1.4010754e-12 8.7822056e-13 1.1475186e-12 2.5383413e-12 1.2859324e-12 2.9020516e-12 1.9235997e-12
1.9456166e-12 2.5108893e-12 6.332998e-13 1.977188e-12 5.347495e-12 1.2133333e-12 1.1732153e-12 2.2300798e-12
5.861816e-13 1.2242929e-12 3.10074e-12 7.954165e-13 2.083965e-12 1.956209e-12 1.9121755e-12 9.318891e-12
2.4697779e-12 2.099971e-12 2.2849144e-12 3.6060894e-12 2.6324927e-13 2.490852e-12 1.75088e-12 7.723323e-12
2.2665357e-12 2.9588439e-12 1.32692e-12 1.2363252e-11 3.9236192e-12 1.5644996e-12 2.9627123e-12 3.4864063e-13
5.4446687e-13 1.4033182e-13 2.48414e-12 1.6954681e-12 3.5108103e-12 4.3243065e-12 2.1785221e-12 8.255394e-13
