models/lamb_oseen_multivortex_model_anode.pth (torch, 124674 bytes, 24 tensors)

net.0.weight f4 [64, 9]
0	0x3d97cca4	0.07412079
1	0xbf10c712	-0.5655376
2	0xbe67cb79	-0.22636212
3	0xbe025d60	-0.12730932
4	0x3d9124a6	0.07087068
5	0x3eaa479b	0.33257756
6	0xbe22cb36	-0.15897831
7	0x3dcf66f0	0.10127056
8	0xbe99c94c	-0.3003639
9	0xbea2bd99	-0.31785277
10	0xbeb4d171	-0.3531604
11	0x3d61c415	0.05511864
12	0xbea55f03	-0.3229905
13	0x3e65a0b8	0.2242459
14	0x3e4b4350	0.19849896
15	0xbe92fd4a	-0.2870887
16	0xbd1e36cb	-0.038626473
17	0x3e41c878	0.18924129
18	0x3e525d27	0.20543347
19	0xbf1e8122	-0.6191579
20	0x3d660e25	0.056165833
21	0xbd8007c6	-0.06251483
22	0x3e328c96	0.17436442
23	0xbdcfa166	-0.10138206
24	0xbd439460	-0.047748923
25	0xbe528d18	-0.20561635
26	0xbd95e4a6	-0.07319002
27	0x3e656b09	0.22404112
28	0x3efd2fe5	0.49450603
29	0x3e8dbcd0	0.27683115
30	0xbdd35a26	-0.10319929
31	0xbea29138	-0.31751418
32	0x3dcda08b	0.10040387
33	0xbe673570	-0.22578979
34	0xbdb65dd0	-0.08904612
35	0xbe355453	-0.17707948
36	0xbaca5428	-0.0015436457
37	0xbd8b9954	-0.068163544
38	0x3e85bb02	0.26119238
39	0xbce14840	-0.027500272
40	0x3ea5d367	0.3238785
41	0x3cc0e380	0.02354598
42	0x3e9494da	0.29019815
43	0xbe9bf397	-0.30459282
44	0xbe8746ce	-0.26421207
45	0xbefabce8	-0.4897225
46	0x3ee5fdcc	0.44920194
47	0x3e8a0803	0.26959237
48	0x3dffa04b	0.12481745
49	0x3e6099b0	0.21933627
50	0x3d737e76	0.059446774
51	0x3c0213d6	0.0079393
52	0xbca40d40	-0.02002585
53	0xbe887c28	-0.26657224
54	0xbcdb17e7	-0.026744796
55	0xbf129272	-0.5725471
56	0xbe2535d6	-0.16133818
57	0x3e7c5130	0.24640346
58	0xbe293c76	-0.1652697
59	0x3e2368b8	0.15957916
60	0x3e2d82e8	0.16944468
61	0xbe1a598b	-0.1507322
62	0x3e4075e3	0.1879497
63	0x3e9d690a	0.307442
64	0x3ef0d98d	0.47040978
65	0x3e7e1dd0	0.2481606
66	0x3e815eb8	0.25267577
67	0xbe3c0448	-0.18361008
68	0xbe7b4898	-0.24539411
69	0xbe327ee0	-0.17431211
70	0xbde347d0	-0.110976815
71	0x3d8ddbeb	0.06926712
72	0x3eed578a	0.4635585
73	0x3ed24d78	0.4107473
74	0xbe5caf2a	-0.21551195
75	0x3e60ea3b	0.21964352
76	0x3dc93f1b	0.098264895
77	0xbe8d6964	-0.2761947
78	0x3df81c2b	0.121147476
79	0xbddb9480	-0.107216835
80	0xbca2efc0	-0.019889712
81	0xbdb57dba	-0.08861871
82	0x3f2b8503	0.66999835
83	0x3e2564b8	0.16151702
84	0xbdffc990	-0.12489617
85	0x3d86e9eb	0.06587585
86	0x3e2d632b	0.16932361
87	0xbdf1315b	-0.11776992
88	0xbe08cf76	-0.1336039
89	0xbdca312b	-0.09872659
90	0x3f200789	0.625115
91	0xbdf40092	-0.11914171
92	0x3e7a6b21	0.24454929
93	0xbe7c36d6	-0.24630293
94	0x3e9f92c6	0.31166667
95	0xbcff6040	-0.031173825
96	0x3e70c0c0	0.23511028
97	0xbd8a9b5b	-0.06767913
98	0xbe13aeb3	-0.14422111
99	0x3f23a4e4	0.6392348
100	0xbf2a2f35	-0.6647828
101	0xbeb3a32c	-0.35085428
102	0xbe451eae	-0.19249985
103	0x3c19362b	0.009351294
104	0x3e5e5258	0.21711099
105	0x3d67ec76	0.05662199
106	0xbd5321c0	-0.05154586
107	0xbe9ad1b3	-0.30238113
108	0x3f20e957	0.6285605
109	0xbee5faa9	-0.449178
110	0x3e014712	0.12624767
111	0x3e94aeef	0.29039714
112	0x3ea13910	0.31488848
113	0xbe7b5240	-0.24543095
114	0x3ea03c0b	0.3129581
115	0xbd8e46bb	-0.069470845
116	0x3d2ce10b	0.042206805
117	0xbe9a55dd	-0.30143633
118	0x3f211c8f	0.629342
119	0xbdb41041	-0.08792163
120	0x3e2ee6c6	0.1708022
121	0x3d772780	0.060340405
122	0xbc856116	-0.016281646
123	0xbcbd792b	-0.023129066
124	0x3e7c0a73	0.24613361
125	0x3e295cc3	0.16539292
126	0x3e1d97c5	0.15389927
127	0x3ece4303	0.402855
128	0xbdfde458	-0.12397069
129	0x3e3154f3	0.17317562
130	0xbe29b3d0	-0.165725
131	0xbe1388a0	-0.14407587
132	0xbea317d3	-0.31854114
133	0xbe5b89fe	-0.21439359
134	0x3ea84002	0.32861334
135	0xbf019835	-0.50622874
136	0xbd5a352c	-0.053273365
137	0xbe2aa9ca	-0.16666332
138	0xbe013060	-0.1261611
139	0x3daa71c6	0.08322482
140	0xbe4d0183	-0.20020108
141	0x3e98e4bc	0.2986201
142	0xbe8c11e7	-0.27357408
143	0xbe573cf8	-0.21019351
144	0x3ec4cabe	0.3843593
145	0x3ddbbebf	0.10729741
146	0x3d8414bd	0.06449268
147	0xbe373d08	-0.17894375
148	0x3d6c9236	0.057756625
149	0xbdfbf360	-0.123022795
150	0xbce5ebd6	-0.028066557
151	0xbe44d7f0	-0.19222999
152	0xbe8d388b	-0.275822
153	0x3f52b0a0	0.8230076
154	0x3e0b11c8	0.13581002
155	0x3dfe6533	0.12421646
156	0xbe8ab674	-0.27092326
157	0xbe943c32	-0.28952175
158	0x3e5b5ac6	0.21421346
159	0x3d6d8700	0.057990074
160	0xbd1464e0	-0.036229014
161	0xbe0055be	-0.12532708
162	0xbedc0c1b	-0.42977986
163	0x3e9aa8c8	0.30206895
164	0x3e969e09	0.29417446
165	0x3c779100	0.015110254
166	0x3d2a4300	0.041567802
167	0x3ea70646	0.32621974
168	0x3e8a6f9e	0.27038282
169	0xbe4e8353	-0.20167284
170	0x3e7f27fe	0.249176
171	0xbf196c4c	-0.5993087
172	0x3ecd832c	0.4013914
173	0xbe22f6d1	-0.15914465
174	0x3e4db6c8	0.20089257
175	0x3dd9a946	0.106279895
176	0x3e4648e3	0.19363742
177	0x3e91b924	0.28461564
178	0xbdd14d0b	-0.10219773
179	0x3e6c0d9b	0.23052065
180	0x3d55bbfd	0.052181233
181	0xbf09e719	-0.5386825
182	0x3e793da2	0.24339917
183	0x3d1fdc40	0.039028406
184	0x3e49f140	0.19720936
185	0xbe003120	-0.1251874
186	0xbe1f06ee	-0.15529987
187	0xbe90432b	-0.28176245
188	0xbd22d88b	-0.039757293
189	0x3eab4551	0.33451322
190	0xbe122f5e	-0.14275882
191	0x3e9658a2	0.29364496
192	0xbd2463b6	-0.040134154
193	0x3ea87b8f	0.32906768
194	0xbe8ea0d8	-0.2785709
195	0xbcd61696	-0.026133817
196	0xbe82eb77	-0.2557027
197	0xbd90b5db	-0.07065936
198	0xbeca556c	-0.39518297
199	0x3ea987c2	0.33111387
200	0xbe04d3e3	-0.12971453
201	0xbdd713b6	-0.105018064
202	0x3e3a4e23	0.1819387
203	0xbe48c5c3	-0.1960669
204	0x3d1da320	0.038485646
205	0xbe87195b	-0.26386532
206	0x3e85743b	0.2606524
207	0xbf2acc44	-0.66717935
208	0xbed53141	-0.4163914
209	0x3ebab533	0.3646637
210	0xbe7b89d0	-0.2456429
211	0xbe9d8112	-0.30762535
212	0x3e2707e0	0.16311598
213	0xbd6a4440	-0.057193995
214	0xbc7c4bab	-0.0153989
215	0xbe97de63	-0.29661855
216	0x3e701427	0.23445188
217	0x3d31a0ca	0.04336623
218	0xbea345b8	-0.3188913
219	0xbdab0dcb	-0.0835224
220	0xbe2a2bd8	-0.16618288
221	0x3e1b5ff0	0.15173316
222	0xbe876dfc	-0.264511
223	0x3e7bf250	0.24604154
224	0x3de0c8fb	0.10975834
225	0x3eeea236	0.46608132
226	0x3e2b90d3	0.16754465
227	0x3e98eda4	0.29868805
228	0x3e92ec90	0.28696108
229	0x3e81fab6	0.2538659
230	0x3e826002	0.25463873
231	0xbd17bf2b	-0.037047546
232	0xbe83006e	-0.25586265
233	0xbe96b91f	-0.2943811
234	0xbef44e50	-0.47715998
235	0xbf0430dd	-0.5163706
236	0xbe85f1c1	-0.26161006
237	0x3e4ef150	0.20209241
238	0x3e762266	0.2403656
239	0x3df7b2d6	0.12094657
240	0x3d38c6cb	0.04511146
241	0xbe72426b	-0.23658149
242	0x3d58480b	0.05280308
243	0x3eafc337	0.34328625
244	0x3d870268	0.06592256
245	0x3eabe615	0.33573976
246	0x3ca6d180	0.02036357
247	0x3e81448f	0.2524762
248	0x3e9efb0b	0.31050906
249	0x3e528218	0.2055744
250	0xbe960b23	-0.29305372
251	0xbe2a43f6	-0.16627488
252	0x3f1eff59	0.6210838
253	0x3e4174db	0.18892233
254	0xbe1c4f71	-0.1526468
255	0xbe0ae72e	-0.1356475

net.0.bias f4 [64]
0	0x3e00f9d8	0.12595308
1	0x3e89309d	0.26794901
2	0x3dc4ea10	0.096149564
3	0x3e943b18	0.28951335
4	0x3e1b4d25	0.15166147
5	0x3d58c879	0.05292556
6	0x3ec41ecf	0.38304755
7	0xbd613891	-0.054985587
8	0xbe886af5	-0.26644102
9	0xbdd43ee2	-0.103635564
10	0xbdcef723	-0.10105731
11	0x3e12161a	0.14266244
12	0x3c3f7925	0.011686598
13	0xbe5da75b	-0.21645872
14	0xbcaa717f	-0.020806072
15	0xbe78c9a8	-0.24295676
16	0xbd0dd5b9	-0.03462765
17	0x3edc182d	0.42987195
18	0x3dec44e4	0.11536577
19	0x3cdcf20b	0.026970884
20	0x3e2c5968	0.16830981
21	0x3ea45a46	0.32100123
22	0x3e33a18c	0.17542094
23	0x3e8df8cc	0.2772888
24	0xbdb9097f	-0.09035014
25	0xbe90e7c0	-0.2830181
26	0xbde0ad6b	-0.10970577
27	0x3e1dbe60	0.15404654
28	0xbe84e969	-0.25959328
29	0xbe989b06	-0.29805773
30	0x3cf72306	0.030168068
31	0xbdaeb3ee	-0.085304126
32	0xbeb41538	-0.3517244
33	0xbeba7c8f	-0.36423156
34	0x3ed01eb9	0.4064844
35	0x3e50c66b	0.2038819
36	0xbd98e180	-0.07464886
37	0xbe031083	-0.12799267
38	0x3e2e7821	0.17038013
39	0x3daae7e7	0.08345013
40	0x3e879edd	0.2648839
41	0xbebcfd4a	-0.36911994
42	0xbe0711ae	-0.13190338
43	0x3cb3b529	0.02193697
44	0x3cb190dd	0.021675522
45	0xbe6a9fe8	-0.22912562
46	0xbe8c171b	-0.27361378
47	0x3e41babb	0.18918888
48	0xbe152f42	-0.14568809
49	0x3e0449d9	0.12918796
50	0x3d7f71cd	0.06236439
51	0x3e6e565e	0.23275134
52	0x3de4a9f4	0.111652285
53	0xbe40ef39	-0.18841256
54	0xbe85fe46	-0.26170558
55	0xbeadc16c	-0.33936632
56	0xbcc963cc	-0.02458372
57	0x3da986c2	0.08277656
58	0xbeb8eb51	-0.36117032
59	0xbe29f326	-0.1659666
60	0x3d342e4a	0.043989457
61	0x3dfb2dc0	0.122645855
62	0x3e95bf34	0.2924744
63	0x3e80718b	0.25086626

net.2.weight f4 [64, 64]
0	0xbb72e77f	-0.0037064252
1	0xbde9750e	-0.113992795
2	0x3d7cb8af	0.061699566
3	0xbd14e64d	-0.036352444
4	0xbc3af7d3	-0.011411625
5	0xbdf88d85	-0.12136368
6	0xbd6d0e35	-0.057874877
7	0x3d821c00	0.06352997
8	0xbcf8d882	-0.030376676
9	0xbac5c313	-0.0015088044
10	0x3da71156	0.081576034
11	0xbd82be8c	-0.06384
12	0x3c464348	0.012101002
13	0xbd55d5a1	-0.052205686
14	0xbca413bf	-0.020028947
15	0xbd1dbfbb	-0.038512927
16	0xbd3e15a9	-0.046407375
17	0x3dc77f92	0.09741129
18	0x3d6eaa94	0.058268145
19	0x3dce3068	0.100678265
20	0xbcf84242	-0.030305032
21	0x3dd471fd	0.10373304
22	0xbd48e0c7	-0.04904249
23	0xbdd64e89	-0.10464198
24	0x3c25f024	0.010128055
25	0xbd87dc46	-0.06633811
26	0xbd46c74a	-0.0485299
27	0x3d9090c2	0.0705886
28	0x3c2aec75	0.010432352
29	0x3e0f8022	0.14013723
30	0x3df0a634	0.11750451
31	0xbd6d285b	-0.057899814
32	0x3e0eec95	0.13957436
33	0x3d1bf89d	0.038078893
34	0x3dc341ea	0.095340565
35	0x3d480491	0.04883248
36	0x3dc469f1	0.09590519
37	0x3d81160e	0.06303035
38	0xbdd13a71	-0.10216225
39	0xbd138f6a	-0.036025442
40	0x3dd983c4	0.106208354
41	0x3d92456e	0.07142149
42	0xbddd9b3d	-0.10820625
43	0x3cadd1df	0.021218238
44	0xbe0df749	-0.13863863
45	0xbd11cfd4	-0.03559859
46	0xbbe8ce28	-0.007104654
47	0x3dda13f0	0.10648334
48	0xbd67e80d	-0.056617785
49	0xba83a502	-0.0010043683
50	0x3cf00e1d	0.029303605
51	0xbd1ad059	-0.037796352
52	0xbd767331	-0.06016845
53	0x3d7d7240	0.061876535
54	0x3de449cc	0.11146888
55	0xbd9e8fac	-0.07742247
56	0xbd826b3a	-0.06368108
57	0xbd1e643e	-0.038669817
58	0x3d8d1bac	0.068900436
59	0x3dfbf812	0.12303175
60	0x3d96467e	0.07337664
61	0xbd99a07b	-0.07501312
62	0x39eb6063	0.00044894507
63	0x3d93d438	0.07218212
64	0xbbd7a201	-0.0065805917
65	0xbcabc994	-0.020970143
66	0xbd2897f5	-0.041160543
67	0xbd0f8eba	-0.035048224
68	0xbde2d30c	-0.1107541
69	0x3cf3d602	0.029765133
70	0xbd00b4db	-0.031422477
71	0xbc65afe7	-0.014018989
72	0xbbc8ea6b	-0.0061314604
73	0x3bb7e3e9	0.005611886
74	0x3be9a4c2	0.0071302364
75	0xbe115768	-0.14193499
76	0xbdd56cf5	-0.104211725
77	0x3de268fb	0.1105518
78	0x3d9eb5df	0.07749533
79	0xbdf05975	-0.117358126
80	0xbe4cc1a0	-0.19995737
81	0xbdf1a101	-0.11798287
82	0x3df96dfd	0.12179182
83	0xbc3bc277	-0.011459938
84	0x3dbf19de	0.09331106
85	0x3dd63755	0.104597725
86	0x3e1ae819	0.151276
87	0x3e038716	0.128445
88	0x3dea8fcd	0.11453209
89	0x3d0edd4b	0.03487901
90	0x3e02b732	0.12765196
91	0x3d13dfb1	0.036102
92	0x3cf7c153	0.030243551
93	0x3d18271c	0.037146673
94	0xbddefeea	-0.10888465
95	0x3db5dd9c	0.08880159
96	0x3dd859bb	0.1056399
97	0x3db95b2e	0.09050594
98	0xbd1c3055	-0.03813203
99	0x3dc14895	0.09437672
100	0xbd65b40b	-0.056079905
101	0xbd785564	-0.06062831
102	0x3cc185ea	0.023623426
103	0x3cd6ece1	0.026236
104	0xbd079833	-0.033104133
105	0xbc4090a7	-0.011753238
106	0x3b0dc700	0.0021633506
107	0x3cbeb345	0.023278842
108	0x3e06628c	0.1312353
109	0xbd9e9572	-0.07743348
110	0x3bafede3	0.0053689345
111	0xbd3e541b	-0.046466928
112	0xbd1ca3c5	-0.03824212
113	0x3dbafe4d	0.09130535
114	0x3cbf02b1	0.023316713
115	0xbda4f4f7	-0.08054536
116	0x3db36634	0.08759728
117	0xbde7fe71	-0.11327828
118	0x3dd09075	0.10183803
119	0x3e0cbde7	0.13744317
120	0x3d55140c	0.05202107
121	0x3db58308	0.08862883
122	0xbd15d8fb	-0.03658388
123	0x3da9284f	0.082596414
124	0xbb0df2ef	-0.0021659692
125	0xbc9c4afa	-0.01907872
126	0x3dd13a07	0.10216146
127	0x3db42d56	0.0879771
128	0xbd98ea29	-0.074665375
129	0x3d872c46	0.06600241
130	0x3cdf5c5c	0.02726572
131	0x3d71c702	0.05902768
132	0x3d8a0298	0.06738776
133	0xbce4acb8	-0.02791439
134	0xbdde00da	-0.10840006
135	0x3d99a862	0.075028196
136	0x3d4a5ca3	0.04940475
137	0x3bf54134	0.0074845795
138	0x3da8c31c	0.08240339
139	0x3bfb7a35	0.0076744803
140	0x3bc85e1e	0.0061147353
141	0x3e050a04	0.12992102
142	0x3dde66b6	0.10859434
143	0xbdeb8ef8	-0.115018785
144	0x3dd055a7	0.10172587
145	0x3c97c270	0.018525332
146	0xbc8294fe	-0.015940186
147	0xbd1dc8c4	-0.038521543
148	0xbd50d0f8	-0.050980538
149	0xbd26e0b7	-0.04074165
150	0x3de1957b	0.11014839
151	0xbcb1e51f	-0.021715699
152	0xbd2445e5	-0.04010572
153	0x3e195529	0.14973892
154	0xbdac18cc	-0.08403167
155	0x3dc02d2b	0.09383615
156	0x3d7369d8	0.059427112
157	0x3e09c1cb	0.13452832
158	0x3d8dc017	0.06921404
159	0xbc94a935	-0.01814709
160	0xbd7743ad	-0.060367275
161	0xbdaa2ddc	-0.08309528
162	0x3e32190a	0.17392364
163	0x3cfcfe66	0.030883025
164	0x3df6cf93	0.120513104
165	0x3de3fbc5	0.111320056
166	0xbdf12776	-0.11775105
167	0xbd6f1700	-0.058371544
168	0x3ca75c97	0.020429892
169	0x3d7b66f4	0.06137748
170	0x3ddf6d66	0.10909538
171	0xbd2b1973	-0.041772317
172	0x3dec0477	0.11524289
173	0xbd05bfc6	-0.032653593
174	0xbd8c8d3d	-0.068628766
175	0x3d3c9379	0.04603908
176	0xbc54a84a	-0.012979576
177	0xbcadebac	-0.021230541
178	0x3c3def80	0.011592746
179	0xbd3a47a6	-0.045478486
180	0x3dad26c3	0.08454659
181	0xbe071cfc	-0.1319465
182	0x3c602fd0	0.013683274
183	0x3cb3803d	0.021911735
184	0xbd045506	-0.032307647
185	0x3dcbb567	0.09946709
186	0xbd39102f	-0.04518145
187	0x3d47a3cb	0.04874019
188	0xbd73a5af	-0.05948418
189	0x3cbe1006	0.023201
190	0x3d6ac380	0.05731535
191	0xbdd8ecb1	-0.1059202
192	0xbd96571c	-0.073408335
193	0x3af50e03	0.0018696192
194	0xbe3fdd5e	-0.18736789
195	0x39c164df	0.00036886983
196	0xbbbd6c05	-0.005780699
197	0x3e8ba8b7	0.27277157
198	0xbe3893b1	-0.1802509
199	0x3de2ab85	0.11067871
200	0x3dfc22c2	0.12311317
201	0x3e4d3a2e	0.20041725
202	0xbeaac9fa	-0.3335722
203	0xbf1753bf	-0.5911216
204	0xbed99159	-0.42493704
205	0x3e0c80bc	0.13720983
206	0x3e2c50ee	0.16827747
207	0x3e83b74e	0.25725788
208	0xbe6f115e	-0.23346469
209	0xbe8bf267	-0.27333376
210	0x3e180423	0.14845328
211	0x3e438886	0.19095048
212	0xbe26716a	-0.16254202
213	0xbdce1226	-0.10062055
214	0x3e894f9a	0.26818544
215	0xbe4a80aa	-0.19775644
216	0xbddaf2a4	-0.10690811
217	0x3bf050b4	0.0073338393
218	0x3d704ff9	0.058670018
219	0x3b801a5f	0.0039093937
220	0x3d2f7662	0.042837508
221	0x3e0b0e48	0.13579667
222	0xbe809ae3	-0.2511817
223	0xbe0109e7	-0.12601434
224	0xbdb05f98	-0.08611983
225	0x3cc8eee4	0.024527974
226	0xbecdbf22	-0.40184885
227	0x3df2053f	0.11817407
228	0x3d6cd84a	0.057823457
229	0x3e56fa6e	0.20993969
230	0x3e18703f	0.14886568
231	0x3ea362e6	0.3191139
232	0xbe066899	-0.13125838
233	0x3e06e89a	0.13174668
234	0x3ddc922c	0.107700676
235	0x3e608288	0.21924794
236	0x3e81c481	0.25345233
237	0xbd4fb70a	-0.05071167
238	0x3d2123d5	0.039340813
239	0xbdba7582	-0.09104444
240	0xbe29cffb	-0.16583245
241	0xbe2b8355	-0.16749318
242	0xbe1b7813	-0.15182523
243	0x3dd167b3	0.10224857
244	0xbe83b4e1	-0.25723937
245	0xbe7a119c	-0.2442078
246	0x3dc81e9d	0.09771464
247	0x3ee2c17c	0.44288242
248	0xbd707ab5	-0.058710773
249	0x3e9d7c3c	0.30758846
250	0xbd53a03f	-0.051666494
251	0x3e5d2d07	0.21599208
252	0xbe176dc7	-0.1478797
253	0x3d9773f1	0.07395161
254	0xbd64eced	-0.055890013
255	0xbccb520a	-0.024819393

net.2.bias f4 [64]
0	0x3db66244	0.089054614
1	0xbdd7cf97	-0.105376415
2	0x3d8d02d4	0.06885305
3	0xbda52008	-0.0806275
4	0xbdb4871e	-0.08814834
5	0xbd5fa16b	-0.0545973
6	0x3ce24f68	0.027625754
7	0x3caaa44e	0.0208303
8	0xbdbd6c0d	-0.09249125
9	0x3d8a6ae2	0.067586675
10	0xbc96d8ba	-0.01841389
11	0x3cc6949d	0.024240786
12	0x3d525a2e	0.051355533
13	0xbde91dae	-0.11382614
14	0x3da92b0c	0.08260164
15	0x3d490ce1	0.049084548
16	0xbd8a4fc3	-0.067534946
17	0xbdafe787	-0.08589082
18	0x3de03b9a	0.10948868
19	0x3df77f70	0.12084854
20	0xbe780666	-0.24221191
21	0x3d4685be	0.04846739
22	0xbd665431	-0.056232635
23	0xbd0cc093	-0.03436334
24	0xbc3a597e	-0.011373876
25	0xbd874b44	-0.06606153
26	0x3db041a2	0.086062685
27	0xbd39fa7b	-0.045404892
28	0x3d90c32f	0.07068478
29	0x3d8bb6ac	0.06821951
30	0x3d78ecaa	0.060772575
31	0xbd1cdf68	-0.038298994
32	0x3d1eecfd	0.03880023
33	0xbda35cc5	-0.07976679
34	0x3e34e99c	0.1766724
35	0xbe299643	-0.16561227
36	0x3ced0a77	0.028935654
37	0x3dd1dac2	0.10246803
38	0x3e01bfe9	0.12670864
39	0x3c4d33ab	0.012524526
40	0xbdd6fe19	-0.10497684
41	0xbd4fd5c1	-0.05074096
42	0x3c64adc0	0.013957441
43	0x3d8788ef	0.06617915
44	0x3db12b0f	0.08650791
45	0xbde72319	-0.11285991
46	0xbc015e96	-0.007896086
47	0xbdff0b26	-0.12453298
48	0xbe265ab9	-0.16245545
49	0x3a771824	0.00094258995
50	0x3de7de4b	0.11321696
51	0x3da49ce6	0.080377385
52	0xbd6bd476	-0.057575665
53	0x3e0f879f	0.14016579
54	0x3e0444f7	0.12916933
55	0xbda38f56	-0.079863235
56	0x3d437fea	0.04772941
57	0xbd86c66f	-0.06580817
58	0xbe373683	-0.17891888
59	0x3df8ea3f	0.12154054
60	0x3cc5fba2	0.02416784
61	0x3bc300fb	0.0059510446
62	0xbdc112f6	-0.09427445
63	0xbd4289b7	-0.047494616

net.4.weight f4 [64, 64]
0	0x3d99c0ab	0.075074516
1	0x3d3221f2	0.043489404
2	0x3dc2d853	0.09513917
3	0x3da3e62d	0.08002887
4	0x3d5acc9c	0.053417787
5	0xbd13d3c6	-0.036090635
6	0x3d0b3763	0.033988368
7	0x3d497818	0.049186796
8	0x3bc5b6d1	0.0060337563
9	0x3d0dba85	0.034601707
10	0xbd06beba	-0.032896735
11	0xbde50155	-0.11181895
12	0xbd86ddcc	-0.06585273
13	0x3c358046	0.011077946
14	0x3d5f38e1	0.054497603
15	0xbc5b0e89	-0.013370165
16	0x3df0ba24	0.117542535
17	0xbde0d703	-0.1097851
18	0xbc5cece0	-0.01348421
19	0x3dc1f1b2	0.09469928
20	0xbd68b8ad	-0.056816746
21	0xbd88f31f	-0.06686997
22	0x3d0c7daa	0.03429953
23	0x3d91b383	0.07114317
24	0xbc627384	-0.013821486
25	0xbc9c76d6	-0.019099634
26	0xbc61d798	-0.013784312
27	0xbdf000b4	-0.11718884
28	0xbd763743	-0.060111295
29	0xbdd27b6d	-0.10277448
30	0x3e144d54	0.14482623
31	0xbcf833f7	-0.030298216
32	0xbca66525	-0.020311901
33	0x3da80ade	0.08205198
34	0x3d6f839a	0.058475114
35	0x3d2b0a20	0.041757703
36	0xbdc33bd1	-0.095328934
37	0x3cf12552	0.029436741
38	0x3d9ecafc	0.0775356
39	0x3dc5a946	0.09651427
40	0xbc9b1e8a	-0.01893546
41	0x3c2408b7	0.010011843
42	0x3e09f8c3	0.13473801
43	0xbdb1dd68	-0.08684808
44	0xbde8a6d6	-0.113599464
45	0x3da95454	0.082680374
46	0x3d01cdd0	0.03169042
47	0x3dc9669c	0.09834024
48	0xbe01e0b5	-0.12683375
49	0xbd92a757	-0.07160824
50	0xbd9fdcb6	-0.07805769
51	0x3d124f1f	0.035719987
52	0xbd69e3a8	-0.057101876
53	0x3dafc057	0.08581608
54	0x3d883b49	0.06651933
55	0x3d2d77e5	0.04235067
56	0xbdce6447	-0.1007772
57	0xbdd9f278	-0.1064195
58	0x3d3ada0a	0.045618095
59	0xbdd0a3a2	-0.101874605
60	0xbd7e5b1d	-0.06209861
61	0x3b3f1413	0.0029156252
62	0x3d4efb7e	0.05053281
63	0xbe0620e6	-0.13098487
64	0x3df64e71	0.1202668
65	0x3d70b247	0.05876377
66	0x3c767df8	0.015044682
67	0x3bfb8f2c	0.0076769795
68	0xbd75a961	-0.059975985
69	0xbccec22f	-0.025239078
70	0x3dcff2ab	0.10153707
71	0x3c82a89a	0.015949536
72	0xbbae87bb	-0.005326239
73	0x3d1e1fb7	0.038604464
74	0x3c8969ab	0.01677402
75	0x3d72fe6c	0.059324667
76	0x3da8bbda	0.08238955
77	0x3d02ccfe	0.031933777
78	0x3e01ccd6	0.12675795
79	0xbe01c240	-0.12671757
80	0xbd800e15	-0.06252686
81	0x3d9424c9	0.07233579
82	0xbdc5de35	-0.09661523
83	0x3e01545f	0.12629841
84	0x3e843fe1	0.25829986
85	0xbcc0823c	-0.0234996
86	0xbd81fd46	-0.06347136
87	0x3de0eba8	0.10982448
88	0x3dada849	0.084793635
89	0x3e214271	0.15748002
90	0xbc9c6099	-0.01908903
91	0xbdc3df4e	-0.09564076
92	0xbe297ebc	-0.16552252
93	0xbd4c4ed0	-0.04987985
94	0x3c8e262f	0.017352192
95	0x3d4b40ed	0.049622465
96	0x3d299485	0.041401405
97	0x3d95d740	0.07316446
98	0xbe6505ce	-0.22365496
99	0x3dd1ee0e	0.102504835
100	0x3e096f44	0.1342135
101	0xbcb5e4bc	-0.022203796
102	0xbd074a2e	-0.033029728
103	0x3d3c8c6e	0.04603236
104	0x3dfe5c07	0.124198966
105	0x3d9f1f3e	0.07769631
106	0xbd08eb08	-0.03342727
107	0x3dc8820c	0.097904295
108	0x3d347ebb	0.044066172
109	0x3dc907af	0.09815919
110	0x3d5842a3	0.052797925
111	0xbdc14be8	-0.09438306
112	0x3d7f63f0	0.062351167
113	0x3db6646e	0.08905874
114	0x3d21b9a9	0.0394837
115	0x3d852336	0.065008566
116	0x3da93f9b	0.08264085
117	0xbdf26b4e	-0.11836873
118	0x3c318043	0.010833803
119	0x3d1e0ad7	0.038584556
120	0x3d17b89f	0.037041303
121	0xbe41cef9	-0.1892661
122	0xbe22797e	-0.15866658
123	0x3d23944a	0.03993634
124	0x3c0898b9	0.008337193
125	0xbe0fd19f	-0.14044808
126	0x3e198322	0.1499143
127	0xbe1988b6	-0.14993557
128	0xbe7f675c	-0.24941772
129	0xbd2f5905	-0.042809505
130	0xbda55605	-0.080730475
131	0xbd239f27	-0.0399467
132	0xbe237e66	-0.15966186
133	0xbe269ab1	-0.16269948
134	0x3e519893	0.20468359
135	0x3dcd1ba5	0.100150384
136	0xbc1a0023	-0.009399447
137	0xbe3b33d3	-0.18281488
138	0x3e3f737b	0.18696396
139	0x3e852992	0.26008278
140	0xbd47b6ce	-0.04875832
141	0xbdad407d	-0.08459566
142	0x3d225fae	0.03964203
143	0x3e62f093	0.22162084
144	0x3d5b43b7	0.053531375
145	0x3e10a8f0	0.14126945
146	0x3e827c83	0.2548562
147	0x3db36acf	0.087606065
148	0xbe87133c	-0.26381862
149	0x3ed31564	0.41227257
150	0x3cd06450	0.025438458
151	0xbdebed44	-0.11519864
152	0xbd358e74	-0.044325307
153	0xbe4f64e4	-0.2025333
154	0x3de47aca	0.11156233
155	0x3e391bf4	0.1807707
156	0xbdc93423	-0.098243974
157	0x3d4ba777	0.049720254
158	0xbe81d9d8	-0.25361514
159	0xbdf31b9c	-0.118705004
160	0x3c5719a9	0.013128676
161	0x3e020ac5	0.12699421
162	0xbf14d2ed	-0.5813435
163	0xbdbb7e49	-0.09154946
164	0x3e01fc64	0.12693936
165	0xbd8845b4	-0.0665392
166	0x3e30d04a	0.17266956
167	0xbead6bdc	-0.33871353
168	0xbe0824d9	-0.13295306
169	0x3e0550cc	0.13019103
170	0x3edac8fc	0.42731464
171	0xbd74ea3d	-0.0597937
172	0xbc6dc021	-0.014511139
173	0x3d22845e	0.039677016
174	0x3d0358ce	0.032067113
175	0x3cf760c1	0.030197503
176	0x3cc1a538	0.023638353
177	0xbd8de236	-0.06927912
178	0x3df04b66	0.11733131
179	0xbcffb43f	-0.031213878
180	0xbe5432db	-0.20722525
181	0x3e29f6c0	0.16598034
182	0x3e633ad4	0.2219041
183	0xbe64e236	-0.22351918
184	0xbd6e27ee	-0.05814355
185	0x3e15f6df	0.14644955
186	0xbd8c2ab0	-0.068440795
187	0xbd46435c	-0.048404083
188	0xbc44a991	-0.012003318
189	0xbdaadc2f	-0.08342778
190	0xbd35a49d	-0.04434644
191	0x3d4c884a	0.049934663
192	0x3d162aa0	0.036661744
193	0xbd300936	-0.042977534
194	0x3d1a462e	0.037664585
195	0x3d2d5eee	0.04232686
196	0x3df44e1e	0.11928962
197	0x3cdcc208	0.02694799
198	0x3db3af8b	0.087737165
199	0x3d90a7f1	0.07063282
200	0x3db5de90	0.08880341
201	0x3cf52474	0.029924609
202	0xbccdc218	-0.025116965
203	0x3d8cbcd3	0.06871953
204	0x3ba06adc	0.004895551
205	0x3d3092d7	0.043108787
206	0xbd7f8cb8	-0.06239006
207	0x3ddba26f	0.10724341
208	0xbd72555b	-0.059163433
209	0x3d74f843	0.059807073
210	0x3d06d87e	0.032921307
211	0x3cc398c6	0.023876559
212	0xbd684a66	-0.056711577
213	0xbd2ac696	-0.041693293
214	0xbabbb2db	-0.0014320271
215	0xbdd3021d	-0.103031375
216	0xbe0cc8e8	-0.13748515
217	0x3c268fa6	0.010166084
218	0xbdcc8c08	-0.09987646
219	0xbdea092d	-0.114275314
220	0x3b801f9f	0.0039100195
221	0x3bc92343	0.0061382367
222	0x3dd84246	0.10559516
223	0x3da6e081	0.081482895
224	0x3d98f758	0.07469052
225	0xbc3db474	-0.011578668
226	0xbb186d6b	-0.0023258578
227	0xbcf3c2ea	-0.029756028
228	0x3d03ed1a	0.03220854
229	0x3d19a677	0.03751227
230	0x3d1fbf69	0.039000902
231	0xbd52ea0c	-0.051492736
232	0xbda8a711	-0.082349904
233	0xbdb47c97	-0.08812826
234	0xbd5a90b1	-0.053360645
235	0xbdd8b36e	-0.105810985
236	0x3da8aba6	0.08235864
237	0xbd11baa7	-0.035578396
238	0x3dce59cb	0.100757204
239	0xbd97359b	-0.07383271
240	0xbe15cde0	-0.14629316
241	0xbdc8dea9	-0.09808094
242	0x3cea86e7	0.02862878
243	0x3ddf9c7e	0.109185204
244	0x3d28affc	0.041183457
245	0xbd158605	-0.036504764
246	0xbcaebf14	-0.021331348
247	0xbc95bc90	-0.01827839
248	0x3cf0cda8	0.02939494
249	0xbda05ef4	-0.07830611
250	0x3d5683d4	0.052371815
251	0x3d95692c	0.072954506
252	0xbbe16048	-0.0068779327
253	0xbdc8a30d	-0.097967245
254	0x3de93a99	0.1138813
255	0x39278ee8	0.00015979598

net.4.bias f4 [64]
0	0x3d7a530b	0.061114352
1	0xbdbbc3ee	-0.0916823
2	0xbd99bfa6	-0.07507257
3	0xbbd2cfec	-0.0064334776
4	0x3d120073	0.03564496
5	0xbd82babe	-0.063832745
6	0x3de80c82	0.11330511
7	0xbdd13108	-0.1021443
8	0x3d3428d2	0.04398424
9	0xbde243a2	-0.11048056
10	0xbd88875f	-0.06666445
11	0xbde9de4a	-0.114193514
12	0x3d570532	0.05249519
13	0xbd409a69	-0.047022257
14	0x3d4ecd99	0.050489042
15	0x3cf5fa11	0.030026468
16	0xbd05b303	-0.032641422
17	0x3d4424c6	0.047886632
18	0xbc9b7468	-0.018976405
19	0x3d3fc5db	0.04681955
20	0x3b53e528	0.0032332633
21	0xbc9a02a1	-0.018800082
22	0xbd259161	-0.040421847
23	0x3ca4763e	0.020075914
24	0x3c921c61	0.017835798
25	0xbd9ff3cd	-0.07810173
26	0x3dc30e7a	0.095242456
27	0x3d285736	0.041098796
28	0xbdf1e9ce	-0.11812173
29	0xbd1abf7f	-0.03778028
30	0xbd853e26	-0.065059945
31	0xbcb4d57d	-0.022074455
32	0xbc548823	-0.012971911
33	0xba956241	-0.001139708
34	0x3e0030d5	0.12518628
35	0xbdc13b22	-0.09435107
36	0x3dde6fcf	0.108611695
37	0xbc328b66	-0.010897493
38	0xbd934f96	-0.07192914
39	0xbd893c0b	-0.067009054
40	0x3cbf5b0d	0.023358846
41	0xbe075000	-0.13214111
42	0x3dce8efd	0.100858666
43	0x3dd2d946	0.10295348
44	0x3c882973	0.016621327
45	0x3daeb9b2	0.08531512
46	0xbd5bc486	-0.053654216
47	0xbda20d30	-0.079126716
48	0x3d24b401	0.040210728
49	0xbd963bad	-0.07335601
50	0xbd2b3190	-0.041795313
51	0xbd065f78	-0.03280589
52	0xbd18e41e	-0.037326925
53	0x3c1406c3	0.009034815
54	0x3da76e7d	0.08175371
55	0x3da0a8d0	0.078446984
56	0xbde46cfb	-0.11153599
57	0xbc45bfc5	-0.012069647
58	0xbdac77e6	-0.08421306
59	0xbbe84e5d	-0.0070894198
60	0x3c926ca0	0.017874062
61	0xbdfe606a	-0.12420733
62	0xbd54255a	-0.051793434
63	0x3dd034c6	0.10166316

net.6.weight f4 [8, 64]
0	0x3df6c2e5	0.12048892
1	0xbdd2b7f7	-0.10288995
2	0xbe548520	-0.20753908
3	0x3daf992c	0.08574137
4	0xbd847ac6	-0.0646873
5	0x3df02e8b	0.11727627
6	0xbdc454e3	-0.09586503
7	0xbe22f28a	-0.15912834
8	0xbd9e8bea	-0.0774153
9	0x3db0d4f4	0.086343676
10	0xbe18faaf	-0.14939378
11	0xbd85a8fc	-0.06526372
12	0x3e1135f2	0.14180735
13	0x3da9ff50	0.0830065
14	0x3cc8a928	0.024494722
15	0x3d031ac3	0.032007944
16	0x3d009a74	0.031397298
17	0xbe3241a7	-0.17407857
18	0x3d674c06	0.056468986
19	0xbd9084cd	-0.0705658
20	0xbdb607d4	-0.08888212
21	0x3c558cca	0.013034055
22	0xbcc17a43	-0.02361787
23	0x3d8661ee	0.06561647
24	0xbe09177c	-0.13387865
25	0x3ddc2144	0.107485324
26	0xbe83d0c4	-0.25745213
27	0xbdb588eb	-0.08864006
28	0x3e0520b4	0.13000757
29	0x3daa48e4	0.08314684
30	0x3c959abb	0.018262258
31	0x3d7a7c3b	0.06115363
32	0xbe34d4bf	-0.17659281
33	0xbda515eb	-0.08060821
34	0xbc2f0853	-0.010683137
35	0xbd93a125	-0.0720847
36	0x3d4a2dd9	0.04936013
37	0x3e16094a	0.14651981
38	0x3d2b7039	0.04185507
39	0xbd896073	-0.06707849
40	0x3d71e2cf	0.059054192
41	0xbd8b5c1c	-0.06804678
42	0xbc51c808	-0.012804039
43	0xbe1c65c7	-0.152732
44	0xbe724c62	-0.2366195
45	0x3e005b0d	0.12534733
46	0xbe16d6bb	-0.1473035
47	0xbe1d304c	-0.15350455
48	0xbe1de5dc	-0.15419716
49	0xbe4e0c22	-0.20121816
50	0xbe11e03e	-0.14245698
51	0xbc818055	-0.015808264
52	0x3e1c5d39	0.15269937
53	0xbda13b74	-0.07872668
54	0xbd88975f	-0.06669497
55	0xbe1d517e	-0.15363118
56	0xbdd04ee6	-0.10171299
57	0x3e04d53d	0.12971969
58	0xbe0a9a11	-0.13535334
59	0x3e003941	0.1252184
60	0xbddf9d93	-0.10918727
61	0xbcb44398	-0.022004887
62	0xbe432e14	-0.19060546
63	0xbd177e06	-0.03698542
64	0x3d72aab5	0.05924483
65	0x3df84cbf	0.12124013
66	0x3e3e0632	0.18557051
67	0x3d70ee49	0.058820996
68	0xbdb44a0f	-0.08803188
69	0x3cf151f6	0.029458027
70	0x3e3c35a8	0.18379843
71	0xbe915e52	-0.28392273
72	0x3e09e8e6	0.1346775
73	0x3df2a876	0.118485376
74	0xbdb15a7a	-0.08659835
75	0x3db617b4	0.0889124
76	0xbe20845f	-0.15675496
77	0x3e1319ca	0.14365306
78	0x3e87083e	0.26373476
79	0xbdbe48d0	-0.09291232
80	0x3cc847c4	0.024448283
81	0x3dc76e19	0.09737796
82	0x3da9434d	0.0826479
83	0xbda6a939	-0.081377454
84	0x3ddcf150	0.10788214
85	0x3d732ef1	0.05937094
86	0xbd42b1bc	-0.047532782
87	0xbd75ed90	-0.06004101
88	0x3dc48ab7	0.0959677
89	0xbc4cdc13	-0.012503642
90	0x3dc48035	0.09594766
91	0x3cfdf037	0.030998332
92	0xbe37bc74	-0.17942983
93	0x3d3da266	0.046297453
94	0x3e0f02e6	0.1396595
95	0x3e2a2621	0.16616108
96	0xbe745505	-0.23860557
97	0x3beca5da	0.0072219195
98	0xbdda5abd	-0.10661838
99	0xbdaa58da	-0.08317728
100	0x3ce1590c	0.027508281
101	0xbd5cba7b	-0.05388878
102	0x3df2e2df	0.118596785
103	0x3d8fd4c3	0.07023003
104	0xbd32f8f8	-0.043694466
105	0x3e0e5993	0.13901357
106	0x3d739f10	0.059477866
107	0xbd66707b	-0.056259613
108	0xbde4413a	-0.111452535
109	0x3d7bb0f4	0.061448053
110	0xbdd58fc4	-0.10427812
111	0x3db7ffcc	0.08984336
112	0x3de3b2c7	0.111180834
113	0x3d23076d	0.039802004
114	0x3d67ac80	0.056560993
115	0xbe0108ad	-0.12600966
116	0x3d9f6d78	0.077845514
117	0xbe03f45f	-0.12886189
118	0xbd7be17a	-0.061494328
119	0x3d3e4d1b	0.046460252
120	0x3cedd9f8	0.0290346
121	0xbc9ed0e8	-0.019386724
122	0xbd83fb98	-0.06444472
123	0x3cc97098	0.024589822
124	0xbddc731b	-0.10764142
125	0x3e0f3119	0.13983573
126	0x3de0d25c	0.10977623
127	0xbe142144	-0.14465815
128	0x3d856720	0.0651381
129	0x3cdff208	0.02733709
130	0x3d704a9c	0.058664903
131	0xbdc2052e	-0.09473644
132	0x3d97b8d6	0.074083015
133	0x3dea3da4	0.11437538
134	0xbcce0590	-0.025149137
135	0xbc6a3490	-0.014294758
136	0xbc9eb020	-0.019371092
137	0xbd3d3d14	-0.046200827
138	0x3df28c74	0.118431956
139	0x3ba3d660	0.0049999207
140	0x3d0976f4	0.03356071
141	0x3c910f00	0.017707348
142	0xbcdcb280	-0.026940584
143	0xbd2e2908	-0.0425196
144	0x3da8736a	0.082251385
145	0x3d140210	0.03613478
146	0xbdf41452	-0.11917938
147	0xbd4ee4cc	-0.050511166
148	0x3de26bac	0.11055693
149	0xbde54970	-0.11195648
150	0x3dee2bfa	0.116294816
151	0x3dc0963e	0.094036564
152	0x3d4284f0	0.04749006
153	0xbd728964	-0.059213057
154	0x3c92a3c8	0.017900363
155	0x3d91c94e	0.07118474
156	0xbdef461e	-0.11683296
157	0x3d3b4988	0.04572442
158	0x3d45e528	0.048314244
159	0x3d129344	0.035784975
160	0x3ca2b8e0	0.019863546
161	0x3ce8a860	0.0284006
162	0x3d356490	0.044285357
163	0x3cbc6a50	0.022999913
164	0xbc4bd080	-0.012439847
165	0xbda1c54c	-0.078989595
166	0x3c657790	0.014005557
167	0xbd8664ca	-0.06562193
168	0x3df163e2	0.11786629
169	0xbd47a1b0	-0.04873818
170	0xbdd84018	-0.105591
171	0x3df838b4	0.1212019
172	0x3ddcec56	0.10787265
173	0xbd8b9a88	-0.06816584
174	0xbdaa71a4	-0.083224565
175	0xbcdf3b48	-0.027249947
176	0xbd8dd488	-0.06925303
177	0xbd0df784	-0.034659877
178	0x3dee95a4	0.116496354
179	0x3d50b570	0.050954282
180	0x3cbad900	0.022808552
181	0xbde3dd64	-0.11126211
182	0x3daa6ef4	0.08321944
183	0x3b390500	0.002823174
184	0xbdc62d82	-0.09676649
185	0x3d87e722	0.06635882
186	0xbcc4ec68	-0.024038509
187	0xbd90e418	-0.070747554
188	0xbcdbf390	-0.026849538
189	0x3cf993e0	0.03046602
190	0xbdf2f184	-0.11862472
191	0x3d5772e8	0.052599818
192	0xbdda22d6	-0.10651176
193	0xbc2a8320	-0.010407239
194	0xbd01bbfc	-0.031673416
195	0xbd47c778	-0.048774213
196	0xbcc86e78	-0.024466738
197	0xbdfa4808	-0.1222077
198	0xbdffdc0e	-0.12493144
199	0x3d069494	0.03285654
200	0x3db1b2b4	0.08676663
201	0x3d1b35f0	0.037893236
202	0xbd87f06e	-0.06637655
203	0x3df643e2	0.12024666
204	0x3d7ba510	0.061436713
205	0x3da3805c	0.07983467
206	0x3d81a216	0.063297436
207	0x3bca73e0	0.006178364
208	0xbd9616c0	-0.07328558
209	0x3dfa71b0	0.122287154
210	0x3dd9cba4	0.106345445
211	0xbd19ce4c	-0.037550256
212	0x3d7cb2b4	0.061693862
213	0x3de377de	0.11106847
214	0xbdf9424e	-0.1217085
215	0xbdd41942	-0.1035638
216	0x3d5d33e4	0.054004565
217	0xbcc96530	-0.024584383
218	0x3d992bb6	0.0747904
219	0x3d489cf0	0.048977792
220	0xbc9f57a8	-0.019450977
221	0x3d8d59d0	0.06901896
222	0xbda3985a	-0.07988043
223	0xbc148a00	-0.009066105
224	0x3d8a9dc6	0.06768374
225	0xbccac578	-0.024752364
226	0x3dcc0046	0.0996099
227	0x3c0a69e0	0.008448094
228	0xbcd85108	-0.026405826
229	0x3d3708a4	0.044685975
230	0xbcbaa210	-0.022782356
231	0xbbf7ab20	-0.0075582415
232	0x3dfa45fc	0.1222038
233	0xbd584a5c	-0.05280529
234	0xbcc067f0	-0.023487061
235	0x3d8de6d6	0.06928794
236	0x3dc4363e	0.095806584
237	0xbdcefd40	-0.10106897
238	0x3dd30d8c	0.10305318
239	0x3ba22400	0.004948139
240	0xbcf8b900	-0.030361652
241	0x3df103ba	0.11768289
242	0x3dd9ee14	0.10641113
243	0x3d1a72ac	0.037707016
244	0x3dcf4166	0.10119896
245	0x3d05e914	0.032692984
246	0x3db3db30	0.08782041
247	0x3c78ecd0	0.015193179
248	0x3dcf4dd4	0.101222664
249	0x3daec242	0.085331455
250	0xbc9380b8	-0.018005714
251	0xbd0e9678	-0.034811467
252	0xba677700	-0.0008829683
253	0x3d9298d0	0.07158053
254	0xbdd08544	-0.101816684
255	0xbd83873a	-0.06422277

net.6.bias f4 [8]
0	0x3c4727db	0.012155498
1	0x3dc3e3a9	0.09564907
2	0x3ca9f938	0.02074872
3	0xbd06e8b8	-0.03293678
4	0xbde3e3b6	-0.11127417
5	0x3bf9ed00	0.0076271296
6	0xbd1ad00c	-0.037796065
7	0x3ddcc49c	0.10779688

exp_avg f4 [64, 9]
0	0x35a2c56a	1.2127396e-06
1	0x35d78ee8	1.606034e-06
2	0x349be02f	2.9034115e-07
3	0x00000000	0.0
4	0x00000000	0.0
5	0x00000000	0.0
6	0x00000000	0.0
7	0x00000000	0.0
8	0x00000000	0.0
9	0x35b0c949	1.3171604e-06
10	0x36292044	2.5201743e-06
11	0x35543e61	7.906693e-07
12	0x00000000	0.0
13	0x00000000	0.0
14	0x00000000	0.0
15	0x00000000	0.0
16	0x00000000	0.0
17	0x00000000	0.0
18	0x3577fce6	9.2382686e-07
19	0x3612f59e	2.1898663e-06
20	0x35a97db5	1.2628067e-06
21	0x00000000	0.0
22	0x00000000	0.0
23	0x00000000	0.0
24	0x00000000	0.0
25	0x00000000	0.0
26	0x00000000	0.0
27	0xb56d95fc	-8.8507636e-07
28	0xb5e587b9	-1.710133e-06
29	0xb4f57a33	-4.5723718e-07
30	0x00000000	0.0
31	0x00000000	0.0
32	0x00000000	0.0
33	0x00000000	0.0
34	0x00000000	0.0
35	0x00000000	0.0
36	0x36e7e995	6.911529e-06
37	0x3739d79e	1.1077062e-05
38	0x34cdb97a	3.8319178e-07
39	0x00000000	0.0
40	0x00000000	0.0
41	0x00000000	0.0
42	0x00000000	0.0
43	0x00000000	0.0
44	0x00000000	0.0
45	0x3636984e	2.7208766e-06
46	0xb4b30ce1	-3.335072e-07
47	0x33fbef9a	1.17316816e-07
48	0x00000000	0.0
49	0x00000000	0.0
50	0x00000000	0.0
51	0x00000000	0.0
52	0x00000000	0.0
53	0x00000000	0.0
54	0xb4a4bf44	-3.0686545e-07
55	0x365a601b	3.2540472e-06
56	0xb5293afe	-6.304325e-07
57	0x00000000	0.0
58	0x00000000	0.0
59	0x00000000	0.0
60	0x00000000	0.0
61	0x00000000	0.0
62	0x00000000	0.0
63	0xb2368719	-1.0624512e-08
64	0xb5ed9a3f	-1.7702768e-06
65	0xb58c0e23	-1.0434927e-06
66	0x00000000	0.0
67	0x00000000	0.0
68	0x00000000	0.0
69	0x00000000	0.0
70	0x00000000	0.0
71	0x00000000	0.0
72	0x351c4e4b	5.822846e-07
73	0xb3fb30d9	-1.1696984e-07
74	0x3603ece1	1.9658403e-06
75	0x00000000	0.0
76	0x00000000	0.0
77	0x00000000	0.0
78	0x00000000	0.0
79	0x00000000	0.0
80	0x00000000	0.0
81	0x35b03708	1.3129038e-06
82	0xb5b724bd	-1.3645255e-06
83	0xb5c2b881	-1.4507824e-06
84	0x00000000	0.0
85	0x00000000	0.0
86	0x00000000	0.0
87	0x00000000	0.0
88	0x00000000	0.0
89	0x00000000	0.0
90	0xb694a377	-4.4297735e-06
91	0xb68760d5	-4.0345863e-06
92	0xb4692ee6	-2.1716878e-07
93	0x00000000	0.0
94	0x00000000	0.0
95	0x00000000	0.0
96	0x00000000	0.0
97	0x00000000	0.0
98	0x00000000	0.0
99	0xb67e0b7a	-3.785563e-06
100	0xb5e8e2fa	-1.7351406e-06
101	0x35884398	1.0152462e-06
102	0x00000000	0.0
103	0x00000000	0.0
104	0x00000000	0.0
105	0x00000000	0.0
106	0x00000000	0.0
107	0x00000000	0.0
108	0xb67080a0	-3.5837656e-06
109	0xb68dbdf2	-4.22424e-06
110	0x35ac4f47	1.2838071e-06
111	0x00000000	0.0
112	0x00000000	0.0
113	0x00000000	0.0
114	0x00000000	0.0
115	0x00000000	0.0
116	0x00000000	0.0
117	0xb69ab0b5	-4.610129e-06
118	0xb6c836a6	-5.9668264e-06
119	0xb518b73b	-5.689105e-07
120	0x00000000	0.0
121	0x00000000	0.0
122	0x00000000	0.0
123	0x00000000	0.0
124	0x00000000	0.0
125	0x00000000	0.0
126	0x35a5a0fa	1.2340308e-06
127	0xb676b278	-3.676074e-06
128	0xb07d14db	-9.20705e-10
129	0x00000000	0.0
130	0x00000000	0.0
131	0x00000000	0.0
132	0x00000000	0.0
133	0x00000000	0.0
134	0x00000000	0.0
135	0x368724fb	4.0276186e-06
136	0x369d4337	4.6867895e-06
137	0xb58baf08	-1.0407248e-06
138	0x00000000	0.0
139	0x00000000	0.0
140	0x00000000	0.0
141	0x00000000	0.0
142	0x00000000	0.0
143	0x00000000	0.0
144	0x3661b883	3.3635013e-06
145	0x36cc1f79	6.0833377e-06
146	0xb5016ff6	-4.821917e-07
147	0x00000000	0.0
148	0x00000000	0.0
149	0x00000000	0.0
150	0x00000000	0.0
151	0x00000000	0.0
152	0x00000000	0.0
153	0xb5f69324	-1.8371252e-06
154	0x352aa278	6.356636e-07
155	0xb5c0e557	-1.4371861e-06
156	0x00000000	0.0
157	0x00000000	0.0
158	0x00000000	0.0
159	0x00000000	0.0
160	0x00000000	0.0
161	0x00000000	0.0
162	0x356f43ca	8.9133084e-07
163	0xb603a513	-1.9616607e-06
164	0xb4683d19	-2.1628911e-07
165	0x00000000	0.0
166	0x00000000	0.0
167	0x00000000	0.0
168	0x00000000	0.0
169	0x00000000	0.0
170	0x00000000	0.0
171	0x36290fe6	2.5192217e-06
172	0x35a4f523	1.2290296e-06
173	0xb50de0f0	-5.285392e-07
174	0x00000000	0.0
175	0x00000000	0.0
176	0x00000000	0.0
177	0x00000000	0.0
178	0x00000000	0.0
179	0x00000000	0.0
180	0xb552a280	-7.8467565e-07
181	0x359e9606	1.181558e-06
182	0x3533c121	6.6963736e-07
183	0x00000000	0.0
184	0x00000000	0.0
185	0x00000000	0.0
186	0x00000000	0.0
187	0x00000000	0.0
188	0x00000000	0.0
189	0x36105e3d	2.1512526e-06
190	0x359fcde4	1.1906345e-06
191	0xb56dd218	-8.8595107e-07
192	0x00000000	0.0
193	0x00000000	0.0
194	0x00000000	0.0
195	0x00000000	0.0
196	0x00000000	0.0
197	0x00000000	0.0
198	0xb6025006	-1.941809e-06
199	0xb6a69ea4	-4.9656537e-06
200	0x342f10ae	1.6304213e-07
201	0x00000000	0.0
202	0x00000000	0.0
203	0x00000000	0.0
204	0x00000000	0.0
205	0x00000000	0.0
206	0x00000000	0.0
207	0xb3c54ca4	-9.187468e-08
208	0xb63812fa	-2.7429182e-06
209	0xb6a2cd65	-4.8518873e-06
210	0x00000000	0.0
211	0x00000000	0.0
212	0x00000000	0.0
213	0x00000000	0.0
214	0x00000000	0.0
215	0x00000000	0.0
216	0xb6d52c85	-6.3530774e-06
217	0xb7234989	-9.732678e-06
218	0xb62f831d	-2.615335e-06
219	0x00000000	0.0
220	0x00000000	0.0
221	0x00000000	0.0
222	0x00000000	0.0
223	0x00000000	0.0
224	0x00000000	0.0
225	0xb4246f77	-1.5314241e-07
226	0xb51c25ac	-5.816935e-07
227	0xb4cfe8b9	-3.8726083e-07
228	0x00000000	0.0
229	0x00000000	0.0
230	0x00000000	0.0
231	0x00000000	0.0
232	0x00000000	0.0
233	0x00000000	0.0
234	0x360e113a	2.1169676e-06
235	0x36d644e4	6.385717e-06
236	0xb50b8e6c	-5.1988786e-07
237	0x00000000	0.0
238	0x00000000	0.0
239	0x00000000	0.0
240	0x00000000	0.0
241	0x00000000	0.0
242	0x00000000	0.0
243	0x36188f6c	2.2733248e-06
244	0x369c8488	4.664591e-06
245	0xb5eb58a6	-1.7534664e-06
246	0x00000000	0.0
247	0x00000000	0.0
248	0x00000000	0.0
249	0x00000000	0.0
250	0x00000000	0.0
251	0x00000000	0.0
252	0x35b0069b	1.3114944e-06
253	0x36b3a76a	5.3541053e-06
254	0x360e7bbe	2.1231676e-06
255	0x00000000	0.0

exp_avg_sq f4 [64, 9]
0	0x30ec27c8	1.7182566e-09
1	0x3105d9bb	1.9477813e-09
2	0x30a72f75	1.2164337e-09
3	0x00000000	0.0
4	0x00000000	0.0
5	0x00000000	0.0
6	0x00000000	0.0
7	0x00000000	0.0
8	0x00000000	0.0
9	0x311f190e	2.3151787e-09
10	0x314ce6dc	2.9817135e-09
11	0x3113dbc2	2.1516233e-09
12	0x00000000	0.0
13	0x00000000	0.0
14	0x00000000	0.0
15	0x00000000	0.0
16	0x00000000	0.0
17	0x00000000	0.0
18	0x30e33019	1.6530094e-09
19	0x309cd964	1.141228e-09
20	0x300e0d16	5.1677895e-10
21	0x00000000	0.0
22	0x00000000	0.0
23	0x00000000	0.0
24	0x00000000	0.0
25	0x00000000	0.0
26	0x00000000	0.0
27	0x31331689	2.6060738e-09
28	0x31ac60a5	5.016846e-09
29	0x3120bf7a	2.3391906e-09
30	0x00000000	0.0
31	0x00000000	0.0
32	0x00000000	0.0
33	0x00000000	0.0
34	0x00000000	0.0
35	0x00000000	0.0
36	0x325fc5cd	1.3025283e-08
37	0x329df55f	1.8388787e-08
38	0x31962632	4.369917e-09
39	0x00000000	0.0
40	0x00000000	0.0
41	0x00000000	0.0
42	0x00000000	0.0
43	0x00000000	0.0
44	0x00000000	0.0
45	0x3208cd7d	7.9629645e-09
46	0x3188a40d	3.9767714e-09
47	0x30e566f1	1.6691201e-09
48	0x00000000	0.0
49	0x00000000	0.0
50	0x00000000	0.0
51	0x00000000	0.0
52	0x00000000	0.0
53	0x00000000	0.0
54	0x3126897e	2.4234335e-09
55	0x311b27c2	2.2578068e-09
56	0x30794cc5	9.069477e-10
57	0x00000000	0.0
58	0x00000000	0.0
59	0x00000000	0.0
60	0x00000000	0.0
61	0x00000000	0.0
62	0x00000000	0.0
63	0x30c5c7c2	1.4390411e-09
64	0x31534c17	3.0747793e-09
65	0x307b0eda	9.1334373e-10
66	0x00000000	0.0
67	0x00000000	0.0
68	0x00000000	0.0
69	0x00000000	0.0
70	0x00000000	0.0
71	0x00000000	0.0
72	0x31a85a55	4.899713e-09
73	0x31ed0419	6.8980737e-09
74	0x313a4ec8	2.7111344e-09
75	0x00000000	0.0
76	0x00000000	0.0
77	0x00000000	0.0
78	0x00000000	0.0
79	0x00000000	0.0
80	0x00000000	0.0
81	0x31ac542e	5.015429e-09
82	0x31c6485f	5.770786e-09
83	0x3098465f	1.1079456e-09
84	0x00000000	0.0
85	0x00000000	0.0
86	0x00000000	0.0
87	0x00000000	0.0
88	0x00000000	0.0
89	0x00000000	0.0
90	0x31be1abf	5.5327685e-09
91	0x32308356	1.0274411e-08
92	0x318aad08	4.036e-09
93	0x00000000	0.0
94	0x00000000	0.0
95	0x00000000	0.0
96	0x00000000	0.0
97	0x00000000	0.0
98	0x00000000	0.0
99	0x3156180e	3.1154772e-09
100	0x3131158e	2.5769142e-09
101	0x2f8fd771	2.616463e-10
102	0x00000000	0.0
103	0x00000000	0.0
104	0x00000000	0.0
105	0x00000000	0.0
106	0x00000000	0.0
107	0x00000000	0.0
108	0x318f6ee5	4.174455e-09
109	0x31a2bde7	4.73641e-09
110	0x30a29bfd	1.1831386e-09
111	0x00000000	0.0
112	0x00000000	0.0
113	0x00000000	0.0
114	0x00000000	0.0
115	0x00000000	0.0
116	0x00000000	0.0
117	0x31ff3422	7.4274036e-09
118	0x319cd4dd	4.5643973e-09
119	0x305a12d6	7.9334705e-10
120	0x00000000	0.0
121	0x00000000	0.0
122	0x00000000	0.0
123	0x00000000	0.0
124	0x00000000	0.0
125	0x00000000	0.0
126	0x31a6003a	4.8312616e-09
127	0x3199643b	4.464281e-09
128	0x3126b9dc	2.4261828e-09
129	0x00000000	0.0
130	0x00000000	0.0
131	0x00000000	0.0
132	0x00000000	0.0
133	0x00000000	0.0
134	0x00000000	0.0
135	0x3209ce8e	8.021415e-09
136	0x3189710f	4.000078e-09
137	0x30a46578	1.196141e-09
138	0x00000000	0.0
139	0x00000000	0.0
140	0x00000000	0.0
141	0x00000000	0.0
142	0x00000000	0.0
143	0x00000000	0.0
144	0x3281468f	1.5049663e-08
145	0x323bc8c2	1.093048e-08
146	0x31572ef8	3.1313316e-09
147	0x00000000	0.0
148	0x00000000	0.0
149	0x00000000	0.0
150	0x00000000	0.0
151	0x00000000	0.0
152	0x00000000	0.0
153	0x313e3ae3	2.7682112e-09
154	0x309cacb2	1.1399577e-09
155	0x2f9f803e	2.9013053e-10
156	0x00000000	0.0
157	0x00000000	0.0
158	0x00000000	0.0
159	0x00000000	0.0
160	0x00000000	0.0
161	0x00000000	0.0
162	0x3090ff1d	1.0549887e-09
163	0x31ab2356	4.9807722e-09
164	0x311bee1c	2.2690818e-09
165	0x00000000	0.0
166	0x00000000	0.0
167	0x00000000	0.0
168	0x00000000	0.0
169	0x00000000	0.0
170	0x00000000	0.0
171	0x30cc88cd	1.4881835e-09
172	0x30909f97	1.0522737e-09
173	0x2f2fa896	1.5976051e-10
174	0x00000000	0.0
175	0x00000000	0.0
176	0x00000000	0.0
177	0x00000000	0.0
178	0x00000000	0.0
179	0x00000000	0.0
180	0x31174374	2.2011735e-09
181	0x31363e3b	2.651986e-09
182	0x3035df21	6.61645e-10
183	0x00000000	0.0
184	0x00000000	0.0
185	0x00000000	0.0
186	0x00000000	0.0
187	0x00000000	0.0
188	0x00000000	0.0
189	0x3180177f	3.7279615e-09
190	0x30f0b818	1.7514621e-09
191	0x30d4a5e8	1.5472184e-09
192	0x00000000	0.0
193	0x00000000	0.0
194	0x00000000	0.0
195	0x00000000	0.0
196	0x00000000	0.0
197	0x00000000	0.0
198	0x3104ae8c	1.9307747e-09
199	0x31b8d6bf	5.3795186e-09
200	0x30df5459	1.6249359e-09
201	0x00000000	0.0
202	0x00000000	0.0
203	0x00000000	0.0
204	0x00000000	0.0
205	0x00000000	0.0
206	0x00000000	0.0
207	0x31f49312	7.1180546e-09
208	0x31d65eec	6.239011e-09
209	0x317b5137	3.6571473e-09
210	0x00000000	0.0
211	0x00000000	0.0
212	0x00000000	0.0
213	0x00000000	0.0
214	0x00000000	0.0
215	0x00000000	0.0
216	0x3241e34c	1.128576e-08
217	0x328056ed	1.494069e-08
218	0x31813f3f	3.7615844e-09
219	0x00000000	0.0
220	0x00000000	0.0
221	0x00000000	0.0
222	0x00000000	0.0
223	0x00000000	0.0
224	0x00000000	0.0
225	0x30c6a351	1.4452813e-09
226	0x31305fa8	2.5665745e-09
227	0x310f3257	2.0837854e-09
228	0x00000000	0.0
229	0x00000000	0.0
230	0x00000000	0.0
231	0x00000000	0.0
232	0x00000000	0.0
233	0x00000000	0.0
234	0x3214e9af	8.667867e-09
235	0x32835a35	1.5291429e-08
236	0x3195d49c	4.3606416e-09
237	0x00000000	0.0
238	0x00000000	0.0
239	0x00000000	0.0
240	0x00000000	0.0
241	0x00000000	0.0
242	0x00000000	0.0
243	0x31a2740f	4.728015e-09
244	0x32191356	8.910169e-09
245	0x3181f748	3.7825068e-09
246	0x00000000	0.0
247	0x00000000	0.0
248	0x00000000	0.0
249	0x00000000	0.0
250	0x00000000	0.0
251	0x00000000	0.0
252	0x31dc217d	6.40665e-09
253	0x321331f4	8.567884e-09
254	0x31a5003c	4.8021587e-09
255	0x00000000	0.0

exp_avg f4 [64]
0	0x349be0e7	2.9034638e-07
1	0x35543dad	7.9065904e-07
2	0x35a97d95	1.262803e-06
3	0xb4f57b74	-4.572463e-07
4	0x34cdb7cb	3.8317953e-07
5	0x33fbf02d	1.1731786e-07
6	0xb5293b39	-6.3043586e-07
7	0xb58c0e49	-1.043497e-06
8	0x3603ece7	1.9658416e-06
9	0xb5c2b7f1	-1.450766e-06
10	0xb4692f32	-2.1716986e-07
11	0x3588433e	1.015236e-06
12	0x35ac4f5d	1.2838096e-06
13	0xb518b4f4	-5.6887734e-07
14	0xb07c61a8	-9.1815844e-10
15	0xb58baedc	-1.0407198e-06
16	0xb5016f89	-4.821855e-07
17	0xb5c0e544	-1.437184e-06
18	0xb4683d77	-2.1629045e-07
19	0xb50de0cc	-5.2853716e-07
20	0x3533c140	6.696391e-07
21	0xb56dd163	-8.859408e-07
22	0x342f157d	1.6305962e-07
23	0xb6a2cd7e	-4.8518987e-06
24	0xb62f8382	-2.615358e-06
25	0xb4cfe7c8	-3.8725398e-07
26	0xb50b8b63	-5.198437e-07
27	0xb5eb595d	-1.7534873e-06
28	0x360e7b61	2.1231465e-06
29	0x33fd3b74	1.1792045e-07
30	0xb4ffcdfc	-4.7647325e-07
31	0xb5142378	-5.518591e-07
32	0xb5661148	-8.5706824e-07
33	0x35e16d49	1.6795613e-06
34	0x3606c220	2.0080552e-06
35	0xb48751da	-2.5205264e-07
36	0xb5027256	-4.8595155e-07
37	0xb5b8ea3c	-1.377724e-06
38	0x3505be29	4.982308e-07
39	0xb592e13c	-1.09434e-06
40	0xb4bc41ed	-3.5065696e-07
41	0x35f8208d	1.8486913e-06
42	0xb3b5a554	-8.458542e-08
43	0xb5808c7f	-9.577633e-07
44	0xb4bc6bc6	-3.5096144e-07
45	0x32c24087	2.2613916e-08
46	0xb4c7802e	-3.7159901e-07
47	0xb5dce866	-1.6458914e-06
48	0xb504f74b	-4.953369e-07
49	0x342e570a	1.6236677e-07
50	0x36168314	2.242804e-06
51	0x349f5080	2.967463e-07
52	0x35c9351e	1.4991126e-06
53	0x350eb03d	5.315558e-07
54	0x3570d54d	8.971736e-07
55	0x353f0136	7.1154807e-07
56	0xb3b4b4cd	-8.4147906e-08
57	0xb40989d2	-1.2809258e-07
58	0xb5818e68	-9.652695e-07
59	0xb52bafd8	-6.395835e-07
60	0x35a3dac0	1.2208111e-06
61	0x35e6ac5e	1.7186501e-06
62	0xb4f4483b	-4.5501096e-07
63	0x33d5fcb6	9.964553e-08

exp_avg_sq f4 [64]
0	0x30a72f6d	1.2164328e-09
1	0x3113dbcb	2.1516253e-09
2	0x300e0d1f	5.1677945e-10
3	0x3120bf3f	2.3391775e-09
4	0x31962625	4.369911e-09
5	0x30e566e1	1.6691183e-09
6	0x30794c96	9.069451e-10
7	0x307b0ef7	9.1334534e-10
8	0x313a4e7c	2.7111176e-09
9	0x30984673	1.1079478e-09
10	0x318aad2c	4.036016e-09
11	0x2f8fd774	2.6164637e-10
12	0x30a29bc8	1.1831327e-09
13	0x305a12c5	7.933461e-10
14	0x3126b9c6	2.426178e-09
15	0x30a464f9	1.1961269e-09
16	0x31572ee9	3.1313283e-09
17	0x2f9f802d	2.9013006e-10
18	0x311bee23	2.2690834e-09
19	0x2f2fa8a1	1.5976066e-10
20	0x3035df3a	6.616464e-10
21	0x30d4a5f6	1.5472199e-09
22	0x30df5419	1.6249287e-09
23	0x317b5106	3.6571364e-09
24	0x31813f41	3.7615853e-09
25	0x310f3210	2.0837696e-09
26	0x3195d47d	4.360628e-09
27	0x3181f788	3.782535e-09
28	0x31a50068	4.802178e-09
29	0x31d96743	6.3272707e-09
30	0x30337526	6.52863e-10
31	0x3222fc1b	9.486963e-09
32	0x311001a2	2.0955686e-09
33	0x318c1449	4.0768424e-09
34	0x306077da	8.1661045e-10
35	0x3203e5a9	7.677422e-09
36	0x314ce4d5	2.9815983e-09
37	0x3079fa9a	9.09418e-10
38	0x31fa9f51	7.29407e-09
39	0x30795dc8	9.0718943e-10
40	0x31907871	4.204644e-09
41	0x30999f9b	1.1177578e-09
42	0x2fbbe019	3.4174333e-10
43	0x30678a7c	8.423411e-10
44	0x323f12f1	1.112197e-08
45	0x316e008c	3.463387e-09
46	0x30898005	1.0004447e-09
47	0x308688f1	9.788704e-10
48	0x31906285	4.202152e-09
49	0x309482e8	1.0805623e-09
50	0x30da2ef6	1.5874935e-09
51	0x2f9fafc3	2.9046818e-10
52	0x31463215	2.884126e-09
53	0x2fe76725	4.2091944e-10
54	0x3129312d	2.462069e-09
55	0x2ffc618b	4.5907841e-10
56	0x306e2feb	8.665199e-10
57	0x30be7f76	1.3860546e-09
58	0x30a6be9e	1.2132266e-09
59	0x30b9b861	1.3512925e-09
60	0x324a8e18	1.1790256e-08
61	0x313532e8	2.6367903e-09
62	0x30179c35	5.5155464e-10
63	0x3093bc27	1.0749134e-09
