models/lamb_oseen_multivortex_model.pth (torch, 115242 bytes, 24 tensors)

net.0.weight f4 [64, 3]
00000000: d7ba a9bd 6b23 0f3e f969 d8be 3e6a 6bbf
00000010: 618b 48bf 6cdd 2bbf 4b09 00bf 186a bebe
00000020: 99a9 9d3e bfcb 5abd 8a16 6ebf 3b80 18bd
00000030: b960 7bbe 0e75 40bf 1205 1f3f 500c 423f
00000040: 13b4 983c 6ee3 d93d fe7e 3c3f 5e43 4f3f
00000050: ea5e d1be 9036 eabd d0e9 be3e 31b3 cebd
00000060: dcee fdbe 2b85 2c3f 6246 9abe ed5e 98be
00000070: 2714 10bf 1776 6a3d ab5e afbf 8686 0b3f
00000080: 09ef 973d 7699 693e 4e1a 51bf 6388 29be
00000090: 6aa2 dd3e 5d1b 35bf dc7a 8b3e 7f05 2d3f
000000a0: ba2f 04bf f7ad 283e df6f e5bc ef24 5dbf
000000b0: a116 1cbd 9206 a3be e12c c73d c438 0d3f
000000c0: a20d 11bf c461 2b3f b545 dcbe 456b 563f
000000d0: 3237 8abc 1565 773e 4a04 7bbf 2001 f23e
000000e0: b95a 5c3d 2388 aebe 744e d13e e557 853e
000000f0: 9fe2 873f 8942 e8be e311 bb3e e216 77bf
00000100: d2f0 60be 4bf8 d93e 9637 6cbf c8b4 143f
00000110: b9e5 f73e 0e36 17bf 4e40 5abf 66f9 bf3d
00000120: e799 033f fb1e 7bbe ff52 dcbe 393a b23e
00000130: 0e72 efbe f508 1c3e d050 903e 078c f73c
00000140: cfc4 ff3e b3b2 663f f30b 5c3f d687 c43e
00000150: b6fd 9f3f 4552 673f 880f f23e d888 e73d
00000160: 96ec d33e e041 31be cc87 82be d413 3c3f
00000170: eba6 0cbf 076a a53e 9f6b 3e3f 8031 c3be
00000180: e858 c23e 43f7 353f cf3d 4a3e 7fc6 e83e
00000190: 72ad 3d3e 4789 9cbd abba f03e 9b20 4b3e
000001a0: fd32 183f f1e6 94bf dd35 943e ac52 4a3e
000001b0: 7842 063f 38b1 223f 41fb 17bf 2d36 2ebf
000001c0: 9f36 d4bd 8099 733e 68ee c23d d713 efbe
000001d0: c477 06bf 9ea0 32be 2bc1 17be 6289 acbe
000001e0: 58ac 2bbf 0290 073f b9a9 15be 94e5 153f
000001f0: 1134 62bf 48b8 56be 513f 2b3f b03c 16bd
00000200: a2b4 c73d ab21 13be 2a3f 52bf e879 3d3e
00000210: 3416 13bf d756 063f b016 7bbe 60f3 aebe
00000220: a0f8 103f 2377 593d 3168 35be f80b 74bf
00000230: 884e bcbd b5c6 34bd 68ed fcbe e7f9 dabe
00000240: 4bb9 093f fd5f 1e3f d84d 1fbe 1618 c53e
00000250: e38e 1a3f 7e00 29bf 7e59 3f3e 30af 0e3f
00000260: 722c b6be d22f 123f 679b f0bc 8ebc eebe
00000270: 58a6 13bf af4d 72be f5f5 adbe 7958 6abe
00000280: 1f52 d3bf 3793 f73e 06ac 15bf d36f 313f
00000290: f3fe 78be b4be 1f3f f30e e4be 793a 41be
000002a0: 9737 f8be 9e87 28bf 207e 35bf 6ed8 66bf
000002b0: 4a84 433f b85b 94be d6d2 bd3e 0118 52bf
000002c0: d187 013f f219 e5be ac69 a23f 539a 8d3e
000002d0: 2552 b5bd f11d 183f bf83 e6be 762e fb3e
000002e0: e018 033f 9003 8a3d cd75 94be a6d8 1dbf
000002f0: c780 01bf 2b9f b1be 8620 0bbf 5d39 923e
-0.0828759 0.13978355 -0.4226835 -0.9195899 -0.78337675 -0.6713474 -0.5001418 -0.37190318
0.30793455 -0.053416964 -0.9300314 -0.037231665 -0.24548616 -0.7517861 0.6211711 0.7580004
0.018640554 0.10639082 0.73631275 0.8096217 -0.40892726 -0.11436188 0.3728776 -0.10092772
-0.49596298 0.673907 -0.30131823 -0.29759923 -0.5628075 0.057241526 -1.3700765 0.5450214
0.07418639 0.22812447 -0.8168076 -0.16555934 0.43287975 -0.7074488 0.27242172 0.6758651
-0.51635325 0.16472612 -0.028007446 -0.8638448 -0.038107518 -0.3184095 0.09725357 0.5516474
-0.5666143 0.66946054 -0.43021932 0.8375743 -0.016872022 0.24159653 -0.9805342 0.47266483
0.053797457 -0.3408824 0.40880167 0.2604362 1.0616034 -0.45363262 0.36537084 -0.9651929
-0.21966866 0.42572245 -0.9227232 0.5808835 0.48417452 -0.59066856 -0.8525437 0.09373741
0.5140671 -0.24523537 -0.4303207 0.34810045 -0.46766704 0.15237792 0.28186655 0.030218137
0.4995484 0.90116423 0.85955733 0.38384885 1.2499301 0.9035991 0.47277474 0.11305398
0.41391438 -0.17310286 -0.2549423 0.73467755 -0.54942197 0.32307455 0.74382967 -0.38123703
0.37958455 0.71080416 0.1975014 0.4546394 0.18523195 -0.07643371 0.47017416 0.19836657
0.594528 -1.1632978 0.28947344 0.197581 0.52445173 0.63551664 -0.5936776 -0.68051416
-0.10361981 0.23789024 0.09518129 -0.46694824 -0.525265 -0.17444083 -0.14819781 -0.33698565
-0.6705985 0.52954113 -0.14615525 0.58553433 -0.883607 -0.20968735 0.6689349 -0.03667897
0.0975125 -0.14368312 -0.8212763 0.18503535 -0.57455754 0.5247626 -0.24520373 -0.34170055
0.5662937 0.053092133 -0.17715527 -0.9533076 -0.09194666 -0.044134814 -0.49399877 -0.42768785
0.5379836 0.61865216 -0.15557039 0.3849494 0.6037428 -0.66016376 0.18686482 0.55736065
-0.35580784 0.5710422 -0.029370977 -0.4662823 -0.57675695 -0.23662446 -0.33976713 -0.22885312
-1.6509436 0.48354504 -0.5846561 0.69311255 -0.24316005 0.62400365 -0.44542655 -0.18869962
-0.48479912 -0.65831935 -0.70895576 -0.90173995 0.7637373 -0.28976226 0.37074918 -0.8206788
0.50597864 -0.44746357 1.2688498 0.27656803 -0.088535585 0.59420687 -0.4502239 0.49058884
0.5120983 0.06738961 -0.28996125 -0.61658704 -0.50587124 -0.34691748 -0.543465 0.2855939

net.0.bias f4 [64]
00000000: 229e 44be 86c7 023e 1ceb bebe a4d6 ac3e
00000010: fdf2 04be 3923 7e3e 841b 01bf 83bb d33e
00000020: 9f84 4b3e 2579 a03e b8d2 993e 6f9d 20bd
00000030: aa8c 8c3e 2c4b 85be f59b b5be 3728 db3e
00000040: a4bb 2dbe 1f00 4b3e 79ac 043e 4174 d1be
00000050: 3e71 893e d11c 943e c8a3 85be b75c 12bf
00000060: c337 e9be 0bc9 023e fe64 64bd 4b21 463e
00000070: 61e3 ec3d 4fd0 c73e 423e 093f b7a6 7bbe
00000080: 4357 98be 8bc1 ac3e 0dea bc3d f5fc dd3e
00000090: 4e10 22be ee32 26bf e026 aebe e32f 203e
000000a0: 621e b53e fa50 863d c994 073e bc02 d0be
000000b0: 1905 ab3e af7c cf3d e597 143f a041 99be
000000c0: e788 d6be 7d1a bd3e cf1b d7be 4ef6 e93e
000000d0: 5c17 a73d d357 213f a225 75bd 00f2 ecbe
000000e0: 8a36 803e c813 a4be 249a d7be b8a0 b93e
000000f0: 8874 96be f745 c53e 1652 d03e 18ae 1dbf
-0.19200948 0.12771425 -0.3728875 0.33757508 -0.12983318 0.24818124 -0.5043261 0.41353998
0.1987481 0.31342426 0.30043578 -0.03921264 0.27451068 -0.26033914 -0.35470548 0.4280412
-0.1696611 0.19824265 0.12956418 -0.40909007 0.2684421 0.28928235 -0.26101518 -0.5717272
-0.45550355 0.12772004 -0.055760376 0.19348638 0.115668066 0.39026114 0.5361062 -0.24575315
-0.29754075 0.33741412 0.09224329 0.43357053 -0.15826532 -0.6492146 -0.34014034 0.15643267
0.35374743 0.06558414 0.13240351 -0.40627086 0.33402327 0.101312034 0.5804427 -0.2993288
-0.41901323 0.3693427 -0.42013404 0.45695728 0.08158752 0.63024634 -0.059850343 -0.4627838
0.2504161 -0.32046342 -0.42109787 0.3625543 -0.2938578 0.3852994 0.40687627 -0.6159377

net.2.weight f4 [64, 64]
00000000: c8f3 363e 92ba f03d 3f38 8e3d 1855 88be
00000010: 307d 10be 0557 69be 28ad 803d c762 433e
00000020: f893 af3e a458 bdbd 1a3d 493e c80e f0be
00000030: d5c7 5dbe 18e2 8abe 7c66 9ebd 58ca 03bd
00000040: 98fa d43e 35a0 27be bba1 8f3e dfc4 183e
00000050: 5f91 e3bd 77e2 9ebc 7777 953e 7a4c 293d
00000060: 1d4d 99bd 46ba 94be 3519 07be b8d9 36be
00000070: 86b9 63be d633 953d e27d 3a3e fefd 923e
00000080: 3116 cf3d 1daf f6bd 91b6 00be c3b4 553e
00000090: 71a2 e43d 3996 2f3e 0447 cf3c c177 5d3d
000000a0: e941 a73d 20d1 c6be 6d29 26be d96f b1bc
000000b0: 40a0 8f3e 5aa1 953e b6dc 15be 4406 ccbd
000000c0: 7b01 443d 28b6 f23d db5a 533e b316 10be
000000d0: 0d8c 183e 76ce d0be 02ad 3f3e 5933 20be
000000e0: e6e8 bc3d 35e0 913e 0615 14bf 8628 713e
000000f0: 1a46 b33d ffe3 debd eef1 d9bd c6ef 05bd
00000100: 2e85 983d 095e a53d dc78 e7bd c17a 1d3c
00000110: a3a0 613d aa14 81bb 2b05 41bd 3c65 673c
00000120: dd05 98bd 7482 cf3d 2a0d 1bbb 1ddb 34bd
00000130: 767b 153d a452 9abd 6edb 91bd 1b52 11be
00000140: 3b5e b0bd a7ff 533c 776f f0bd 7c4c 893d
00000150: 5527 9f3d 5e1b eb3d 3eec 21bc 98d8 443d
00000160: 3d28 55ba 0128 983d 3262 c6bd 619a 1d3e
00000170: a2b6 d13d 9baf 63bd 7a12 e33c 37c0 103d
00000180: f7c7 ecbc 6f0a afbc 3f66 62bd a860 8b3d
00000190: 5048 963d dbba c5bd f00d aabd 6b2a 803d
000001a0: 0144 2b3d 9007 b13c a9ce d23d 032a dbbd
000001b0: 4e9e 6cbd 6329 513d c9b5 d6bd 5658 68bd
000001c0: 542e f33d 91e7 b0bd d973 53bc 9866 023c
000001d0: 287d dc3c 3bab f3bb 7c81 02be 166a 3abd
000001e0: ddf6 6dbd 79dd bfbd aa52 84bc 28ef 253c
000001f0: 9564 e7bc 0082 a8bd c17d c33b 9795 9f3d
00000200: ffb7 f43d 0e12 9e3d b674 30bc ad73 033e
00000210: 99af 1c3e e2bc ce3d 7075 a5bd 15d6 1bbe
00000220: 1559 6abe 92e0 01bd c2b8 61be a8d7 ea3c
00000230: be13 2d3d 7df3 ec3d 9b95 6b3d c3b4 63bd
00000240: 77b2 1abe 717f cc3a 8abf d8bd a3a7 8ebc
00000250: 1613 e13d 45f1 2d3c 64ef 53bd 5f6a 223d
00000260: 259c 0b3d b2ad d03d 3b0f 8c3c 3029 233d
00000270: 48aa c8bd 7e5f 87bd b1c1 98bd 3090 ed3c
00000280: b68a eebc 8c18 b53d a6d7 3ebd 6806 31bd
00000290: efd4 813d dc99 d23d 3e74 5a3e 0bb8 7e3d
000002a0: 248c 2abe 99fe 0d3e 17e2 263d 6113 4f3e
000002b0: a602 48be e820 69be 2785 003e 9bfd 363e
000002c0: c50d fd3c ce16 d6bd 42a3 713a 6bb9 1d3d
000002d0: 1c8a fcbc f9fe 36be 8113 653b aa47 263e
000002e0: 9aea a4bd cb24 9dbb b72b af3e 1014 cdbe
000002f0: 1563 2f3e afe7 9ebc bbf8 25bb 39ee 613d
00000300: c7af e1bd ada4 1cbe 2c3f 95bd f8a5 dcbc
00000310: a6d7 333e 267c 073e f7fb 00be fe94 df3d
00000320: 746e cb3b 4905 453d 4568 a0bd b490 a8bd
00000330: 932a 0ebd c8e1 c63c fc4b 653d c85b b4bd
00000340: 35a1 2a3b 35f6 de3d 8984 ea3c b532 e6bd
00000350: 657a 9e3d 5099 b8bd 44d7 00be f3ab ffbd
00000360: c920 3abd 3190 81bd 7583 f53d 018e f73d
00000370: 5dc2 853d f2d3 0dbd 5598 ad3d 1343 45bc
00000380: 08a0 ee3b 8efc a5bb 8e1e f23d effd 913d
00000390: 6c9e ffbd b71b 993d 7014 a9bc dfbd 5fbd
000003a0: 1c7d 41bd 9f33 d93d 8839 983b de24 6a3d
000003b0: 4fc4 efbd d2f1 34bd 434c db3b fc54 2bbd
000003c0: 26f1 e73c f7e9 9c3d d7d1 d4bd 8761 bfbd
000003d0: ae57 1dbd e34e 3b3e 234b ffbc 5ccc 943d
000003e0: d004 1f3d 9439 fabd 59b4 e73a b376 043e
000003f0: c94b dfbd f2eb ebbc 3027 ccbd 0ee3 653c
0.17866433 0.117543355 0.06944322 -0.2662742 -0.14110255 -0.22787102 0.06283027 0.1908065
0.3429258 -0.092454225 0.19652215 -0.46886277 -0.21658261 -0.2712562 -0.07734391 -0.032175392
0.41597438 -0.16369708 0.28053078 0.1491885 -0.11111712 -0.019395096 0.29192707 0.0413327
-0.07485411 -0.29048365 -0.1319321 -0.1785649 -0.2223874 0.072852775 0.18212083 0.28709406
0.101116545 -0.12045119 -0.12569644 0.20869736 0.11163796 0.17147149 0.025302418 0.054069284
0.08166868 -0.38831425 -0.1622674 -0.021659778 0.2805195 0.29224664 -0.14634976 -0.099621326
0.047852974 0.1185115 0.20640127 -0.14071159 0.14897175 -0.40782517 0.18718341 -0.15644588
0.09224109 0.2849137 -0.5784458 0.23550615 0.08753605 -0.108833306 -0.106418476 -0.03269937
0.07447277 0.080745764 -0.11302349 0.009611786 0.055084836 -0.003939231 -0.04712407 0.014123257
-0.07422993 0.10132304 -0.002365897 -0.044154275 0.036494695 -0.07535294 -0.07121931 -0.14191477
-0.08611723 0.01293937 -0.1174001 0.06704041 0.07771174 0.11479829 -0.009882985 0.048058122
-0.0008131301 0.07429505 -0.09686698 0.15390922 0.102399126 -0.055587392 0.027718771 0.03533956
-0.028903944 -0.02136728 -0.05527329 0.06805545 0.07338011 -0.096547805 -0.083034396 0.062580906
0.0418129 0.021610051 0.102933235 -0.107013725 -0.05776816 0.05106486 -0.104838915 -0.05672487
0.11874071 -0.08637918 -0.012906038 0.007959031 0.026915148 -0.0074361837 -0.12744707 -0.045511328
-0.058096755 -0.093684144 -0.016152699 0.01012782 -0.028246203 -0.082279205 0.005965919 0.07792204
0.11949157 0.077182874 -0.010770014 0.12837096 0.1530136 0.1009462 -0.0807904 -0.15218385
-0.22885545 -0.031708308 -0.22043136 0.028667286 0.042255156 0.11569879 0.05751572 -0.05559231
-0.15107141 0.0015601945 -0.10583408 -0.01741392 0.109899685 0.010616605 -0.051741973 0.039652225
0.034084458 0.1018938 0.017097106 0.0398342 -0.097981036 -0.066100106 -0.07458819 0.028999418
-0.029118877 0.088425726 -0.046592377 -0.043219 0.06339442 0.102832526 0.21333405 0.062187236
-0.16655022 0.13866653 0.04074296 0.20222236 -0.1953226 -0.22766459 0.12550794 0.1787018
0.030890355 -0.104535684 0.0009217748 0.038506906 -0.030827574 -0.17870702 0.0034954252 0.16238275
-0.08052559 -0.004795646 0.3421304 -0.4005437 0.1712764 -0.019397585 -0.0025325257 0.055158827
-0.11019855 -0.15297194 -0.0728744 -0.026934609 0.17562732 0.13230953 -0.12596117 0.1091709
0.0062082354 0.048100743 -0.07832388 -0.08230725 -0.03470857 0.024277583 0.055980667 -0.088065684
0.0026036028 0.10886804 0.02862765 -0.1124014 0.07738189 -0.09013617 -0.12582117 -0.124839686
-0.045441423 -0.063263305 0.11987964 0.12087632 0.065312125 -0.034625955 0.08476321 -0.0120399175
0.007282261 -0.0050655073 0.11822234 0.07128512 -0.124813884 0.07475989 -0.020639628 -0.054624435
-0.047238454 0.10605549 0.00464553 0.057164066 -0.11707365 -0.04417593 0.0066924407 -0.041829094
0.02831323 0.07661813 -0.10391586 -0.09344774 -0.038413696 0.18291812 -0.031163758 0.07265541
0.03882295 -0.122180134 0.0017677649 0.12935905 -0.10903127 -0.02879903 -0.09968412 0.014031185

net.2.bias f4 [64]
00000000: 245a 05be 3a90 59bd d16b 963c 5129 f03d
00000010: b95e 4bbc ee31 623e db25 6e3d f688 1ebd
00000020: 26ea 07bd df86 953d 6349 e8bd 2df4 093d
00000030: 3282 37bd ec9d 5a3c 1996 873d 617d cdbc
00000040: 2846 47bd 5136 3dbd 265e 8d3b e913 363c
00000050: 1127 16bd d091 d03d 333b 5d3d 4b1e f23b
00000060: 3ce8 883d c305 38bd d0da 29bc d72f 47bd
00000070: f441 8d3d 5441 2abc 5992 b3ba 9835 9e3d
00000080: 0a03 073d fb6a 5cbe 64df 15bd 4a5d bc3d
00000090: 894c e8bd 42ad e9bc 56f2 87bd 44de 033e
000000a0: c7b2 24bd b35f acbd cf81 80bd d458 d53d
000000b0: 1e89 00bd 6017 b53d 4f3f d13d e735 97bc
000000c0: 1fc6 d23d 2393 7fbd 9689 153d 58f0 47bd
000000d0: c242 d33d a6ab 7c3c 2e78 913d b4d1 833c
000000e0: be90 dfbd 1d83 66bd 8334 b9bd 8af0 8c3a
000000f0: aad0 3fbe a082 bebc 7b23 06be 1b46 063e
-0.13022667 -0.05311606 0.018361958 0.117266305 -0.01241272 0.22089359 0.05814157 -0.038704835
-0.033182286 0.07301115 -0.113421224 0.03368013 -0.0448019 0.013343316 0.06620426 -0.0250842
-0.04865089 -0.04619438 0.004314202 0.011113145 -0.03665835 0.101840615 0.054011535 0.007388865
0.0668492 -0.04492737 -0.01036711 -0.048629608 0.06897345 -0.010391552 -0.0013700231 0.07725066
0.032961883 -0.21525185 -0.036589995 0.09197481 -0.11342723 -0.028524999 -0.06638019 0.12877756
-0.040209558 -0.08416691 -0.06274759 0.10417333 -0.031380765 0.08842349 0.10217153 -0.01845832
0.10291695 -0.06239618 0.036508165 -0.048813194 0.103154674 0.015421784 0.071030006 0.016091205
-0.10916279 -0.056277383 -0.09043219 0.0010752839 -0.18731943 -0.023255646 -0.13099472 0.1311268

net.4.weight f4 [64, 64]
00000000: 12c6 a33d 5da8 f03d 7b94 bcbc fbd7 6ebc
00000010: a1f2 aabd 386c 833d 7898 f5bd fc4b d7bd
00000020: 1625 f1bd 04b0 8cbd 97af 0bbc c067 563d
00000030: 3ea7 b9bd 2ecb 883d 1b04 27be e489 a13b
00000040: 8217 f53d ff15 48bd 414f aa3d f00c 22bd
00000050: 1923 3d3d 4604 3f3d 02c6 763d 5ee6 1e3d
00000060: 713b 8b3d 3a8b c0bd af84 ccbc 105a 1f3c
00000070: 9859 b3bd 80e7 7bbd f40c 9bbd ea4c b8bd
00000080: c049 043d c1fa 69bd d057 e3bc 6565 493d
00000090: 997c d4bd bb97 4ebd 3103 51bc 18f7 3cbd
000000a0: 9fbd 973d c454 863c 66f9 3f3e b5fa 5bbb
000000b0: be65 c6bd 6ee2 a3bd fd2b a43d 1025 abbd
000000c0: 029f c73d 459d d7bd 48d6 ddbd e03f e93d
000000d0: ea4f 833d 80fc dabd 3684 bcbd c20b 5f3d
000000e0: 5f36 b93d e694 46bd 2e3e c33d 7aa1 96bc
000000f0: 11fd aa3d 45ee b53d c210 813d eaeb 5fbd
00000100: 5f24 0bbe d690 dd3d 15e9 1ebd 9805 003e
00000110: d3b4 9d3d 9344 47bd 5c13 6c3d ccd5 9c3c
00000120: 800c 133d e083 85bb 4f00 07bb cbb9 bdbd
00000130: ac0c ff3d dd2c 313b 75ca 293e 2202 06bd
00000140: 9970 d3bd b438 893d 880c 023d 906a 703d
00000150: e97d ab3b 1761 83bd c596 5c3d a484 1dbe
00000160: 06f0 96bd 2eab 653d d532 123c 6eef 86bd
00000170: 34d4 e4bd 9c34 4dbd eeab bebd fa2a be3c
00000180: c3d5 a83b f068 6dbd fb49 3f3d c013 fabd
00000190: e390 883d 0c99 5b3d 3534 acbd 8524 f33d
000001a0: 0253 98bd e2e8 9e3c 9553 27be 8f2d 08be
000001b0: e131 0b3e c5bc a7bd e18b b2bd c772 01be
000001c0: 3bbf 3fbe 06da 3c3e 09d8 973d 784b dcbd
000001d0: cb11 8cbd 8ac5 9e3d a033 853c 5e82 003e
000001e0: 756d 863c a424 17bd dd6e 90b8 32c7 94bc
000001f0: 2d7b c9bc a2e4 31bc f577 81bd ad2f 023c
00000200: e5c9 4bbc a867 423d 6c77 ce3d e457 9b3d
00000210: b60a aabd bd7d 4e3c 3597 843d 1405 91bc
00000220: 4032 debd 863f 5aba 9c53 f53d c9bf a0bd
00000230: a722 fcbd b7eb 3dbd 0092 e7bd e04c 69bd
00000240: 3cb6 d23d 5cb1 aa3d 80ae 89bc 2247 ecbd
00000250: ec0b 83bd 59d3 b4bd a01c b83d 9f6c 1d3c
00000260: b03f 9ebd 8309 b8bd 1f79 8cbd 263e 91bd
00000270: 3511 04bd 9868 8abd cd46 ae3d 1b55 fc3d
00000280: 55d5 b63d 174f 653d 5518 503d c227 d7b8
00000290: b554 06be c6ed c3bc 7a02 06bd b5ce 32bd
000002a0: 361e a23b 8c36 19bd ea8b ebbc 82ab 89bd
000002b0: 2010 c83b 7c78 9f3d 6e99 d9ba b251 bebd
000002c0: ff44 aa3c c8bf bd3d 6f60 b33d 3360 aa3c
000002d0: 2198 8dbd 6894 95bd e6bf d4bc d2f8 aabd
000002e0: 7288 54ba 74ac 223d f53e 303a f241 103e
000002f0: 33ae bf3d 6dec 17bd b12c cbbc 2b1d 893d
00000300: 97f9 30be b6d4 b73d 65b0 d63d 1271 d13d
00000310: 13ef ad3d b501 983d be55 633c 3ae4 b2bd
00000320: 900d 4e3d 1824 423e 26ea 8d3c a3c1 ed3d
00000330: 1148 f33d b0eb 293e 6a52 ee3c db65 0fbc
00000340: 54ba 29be c3f1 123e 8c58 873d da3d edbd
00000350: 16e0 3f3d a7e8 c53d 1279 b23d 3e42 ddbd
00000360: f1f2 18bc 1379 90bc cbab b93d 7a04 e4bd
00000370: b689 a43b 94f2 f8bd 05cd acbc 1930 243d
00000380: 9327 2fbc 33ab ebbb 5a7d 94bd bfea 14bd
00000390: 1e08 9f3d 7e33 6c3d 7a0b f8bd 521e fbbd
000003a0: 2e1f f7bd fb96 c4bd 5094 123d bcd8 77bd
000003b0: 48be d23d 5cf5 243d a4eb a8bd 34e0 1c3d
000003c0: b93d 48be 7d53 e5bd 1cec ccbd 7052 ee3c
000003d0: 5d76 60bd 67d2 3d3c 0aee b4bd 59a4 d63d
000003e0: 424e 0dbd 83ec 123e 7542 e93c 5add 4ebd
000003f0: 143c 953d 667e c63d 4361 fd3c 32a1 9e3d
0.07996763 0.11750863 -0.02302002 -0.014577861 -0.08347059 0.064171255 -0.11991972 -0.1051254
-0.11774652 -0.0686951 -0.008525751 0.052345037 -0.09065102 0.066793784 -0.1631016 0.004929768
0.119673744 -0.048849102 0.08315898 -0.03956312 0.04617605 0.046634935 0.06024743 0.038793914
0.06798447 -0.09401555 -0.024965612 0.009726062 -0.08757323 -0.061500072 -0.0757083 -0.08999045
0.032296896 -0.057123903 -0.027751833 0.049168963 -0.103753276 -0.05043767 -0.012757109 -0.046134084
0.07409214 0.016397841 0.18747482 -0.003356618 -0.096873745 -0.080021724 0.080162026 -0.083566785
0.09747125 -0.10528044 -0.108318865 0.11389136 0.06411727 -0.10692692 -0.09204905 0.054454572
0.090435736 -0.048481844 0.09533344 -0.018387545 0.0834905 0.08883337 0.063020244 -0.054668345
-0.13588093 0.10818641 -0.038796503 0.12502134 0.07700505 -0.04864938 0.05763565 0.019144915
0.035900593 -0.0040745586 -0.002059955 -0.09263953 0.12453589 0.0027034797 0.16581137 -0.032716878
-0.10324211 0.067002684 0.031750232 0.058695376 0.0052335155 -0.06415003 0.053854723 -0.1538263
-0.073699996 0.056071453 0.008923252 -0.06588636 -0.11173287 -0.050099 -0.09310137 0.023213852
0.0051524355 -0.057961404 0.046701413 -0.12210798 0.0666826 0.053612754 -0.08408395 0.118722
-0.074377075 0.019398157 -0.16340478 -0.13298629 0.13593246 -0.08190302 -0.08718086 -0.1264144
-0.18725292 0.18442544 0.07414252 -0.10756582 -0.06839331 0.07752521 0.016259968 0.12549731
0.016409615 -0.036900178 -6.887105e-05 -0.01816139 -0.024594868 -0.010857733 -0.06321708 0.007945937
-0.012438272 0.047462136 0.10081372 0.07585123 -0.08302824 0.0126032205 0.06474153 -0.017702617
-0.10849428 -0.0008325506 0.11978838 -0.0784908 -0.12311297 -0.046367373 -0.11307144 -0.05695808
0.10288665 0.0833461 -0.01680684 -0.11537005 -0.06398758 -0.08829374 0.08989835 0.009608417
-0.07726991 -0.08986189 -0.068590395 -0.07091932 -0.032242972 -0.06758231 0.08509598 0.1232092
0.089274086 0.05598363 0.050804455 -0.000102594044 -0.1311825 -0.02391709 -0.032717206 -0.043654162
0.004947449 -0.037405536 -0.02875324 -0.06722166 0.006105438 0.077866524 -0.0016601512 -0.09292926
0.020784853 0.09265095 0.087586276 0.020797824 -0.06913782 -0.07303697 -0.02597041 -0.0834824
-0.000810749 0.039715245 0.00067232485 0.14087656 0.09359398 -0.037090708 -0.024801584 0.066950165
-0.17282711 0.08976118 0.10482863 0.102266446 0.084928654 0.074222006 0.013875423 -0.08734937
0.050305903 0.18959081 0.017323565 0.11609199 0.1187898 0.16593814 0.029092032 -0.008752312
-0.16574985 0.14350037 0.06608686 -0.11584063 0.046844564 0.096635155 0.087144986 -0.1080365
-0.0093352655 -0.017635858 0.0906597 -0.11133666 0.0050212992 -0.12155643 -0.021093855 0.040084932
-0.010690588 -0.0071920394 -0.072504714 -0.036356684 0.0776522 0.057666294 -0.12111564 -0.122616425
-0.12066494 -0.0959911 0.035785973 -0.06050943 0.102901995 0.040273055 -0.0824807 0.038299754
-0.19554795 -0.11197565 -0.10005972 0.029092044 -0.05480038 0.011585808 -0.08834465 0.104805656
-0.03449846 0.14348035 0.028474072 -0.050504066 0.072868496 0.09692077 0.030930167 0.07745589

net.4.bias f4 [64]
00000000: 054f f53d de35 ae3d 7ad2 603c fa04 0ebe
00000010: ef20 0f3d 361a 89bd 6aab 653c 622f 87bd
00000020: c627 b43d 6f18 d2bd 3f60 7d3c 76c5 f33d
00000030: 0dfe fabd 8545 c6bd 214a e13c 25f4 a63d
00000040: cdfd ea3d dacb 1c3d 74a0 5dbd b2b1 89bd
00000050: 8671 973c b811 ce3d 5b4a da3d 1ed4 383e
00000060: 4837 0dbe 39d8 c73c 286d cc3d 633c a73d
00000070: 132c 60bd 1be6 103d 0f13 9e3d da07 06bd
00000080: 59b2 a83b 060d ee3d 9ffc f83d 144d 5a3d
00000090: f6be 083e b8b1 53bd 5daa e63d d35b 65bd
000000a0: 951f 8fbd baf9 7bbd 5801 cabd 9bd1 df3d
000000b0: 5063 d9bd f2ad 023e 51cc 643d 2e55 9c3d
000000c0: 727c b7bd 0a83 b4bd c5d8 92bc 1e8c 163d
000000d0: aa61 243d 783d 06bd 1336 72bc 03b5 91bd
000000e0: 738a abbd 112b 8ebd 494c eebd 92cf b9bd
000000f0: 85d4 1dbe 84b5 16bd 6476 d93d 12a5 053d
0.119779624 0.08506368 0.0137220565 -0.13869086 0.034943517 -0.066944525 0.014017919 -0.066008344
0.08796649 -0.102585666 0.015464841 0.11902897 -0.122554876 -0.096812285 0.027501168 0.081520356
0.1147419 0.038280345 -0.0541081 -0.06723346 0.01848675 0.10061973 0.106587134 0.18049666
-0.1379062 0.024395095 0.099817574 0.08165815 -0.054729532 0.035375696 0.07718479 -0.03272233
0.005148214 0.11623578 0.12157559 0.053296164 0.13354096 -0.051683158 0.11262963 -0.055995774
-0.06988446 -0.061517455 -0.098635375 0.10928651 -0.106146455 0.12761667 0.055858914 0.07633434
-0.08959283 -0.08814056 -0.01792563 0.03675472 0.040132202 -0.032773465 -0.0147834 -0.07114603
-0.083760165 -0.06941808 -0.11635644 -0.09072794 -0.15413101 -0.0367942 0.10618284 0.032628126

net.6.weight f4 [2, 64]
00000000: 1953 fabd a974 0e3e 71c4 c0bc ac81 1b3e
00000010: 92db 0e3d 56b9 b13d f7e4 16be 8c62 433d
00000020: 55cb 3b3d a2c7 17be 8af2 093e 208f cd3d
00000030: 5029 1d3d 6c5a 6fbd d9c4 8b3d 981a 38bd
00000040: 16a0 b5bc 462f 34be abb7 c03d 0967 ab3d
00000050: a55a 453e 3af0 eebd 00a0 45bd b837 a5bd
00000060: ea71 303d a2cc 8ebd f919 d7bd 3731 97bd
00000070: 47e4 a63d 19bf 5ebd 99d3 803d 22df 243e
00000080: f5e0 743d 8629 4a3c 5567 fc3d 587e a43d
00000090: 3203 b33d f453 a33d 6c2f c6bd 79e3 15be
000000a0: 40ab be3c 7a8a b03d fa87 0cbe 8a2f f1bd
000000b0: 8d64 bd3d f0ed 06be 60a9 733d 89b9 89bd
000000c0: 1c06 a03c c816 12be 2e51 e5bc 6fa6 0b3e
000000d0: 55e7 473c 4ebd f13c 80c9 2ebe 1e2f 1f3e
000000e0: 8101 363d 06fd d33b cead b63d 2833 213d
000000f0: 10c0 bd3c 5a9c aebd c1f3 c83d a9d8 60be
00000100: ea3d 8bbd fb16 983b 31f2 2d3b c028 1b3e
00000110: 3edd 093e b1e1 973b 9c0e 863d 0e6b 00bd
00000120: a27f 7d3d 9ebc aabc afbf 8ebd 7074 6e3e
00000130: 8ed9 2dbe 0e6e 983d c381 243e 2cd4 23bd
00000140: 6c3e 283e 0b56 683e 5806 43be e7f9 033d
00000150: 37b3 d63b 694d 283d 3836 083e 113f 9fbd
00000160: ca40 883d 3446 d43d f278 52bd bf8e 54bd
00000170: 3ff8 65bd 2296 f2bc c46e bebd b5d1 4bbd
00000180: e79f b63d 55fb 80bd 423c a43d 2d89 513e
00000190: cc3a 30be 49c1 5bbd 979a a73d 016d 433e
000001a0: 4942 503e 4518 d83d 1b41 90bd eb3a 6abd
000001b0: e66c 8b3d 5af4 68be 3088 97bd 3fcb 9c3d
000001c0: f3c3 3ebd 3c87 46bd a91f a63d 46b9 db3d
000001d0: dae9 83bd 3ec5 15bd 5533 583e 3589 123e
000001e0: e3c4 87bd 68d0 1cbe 8397 7a3d a2b2 3f3d
000001f0: 1f98 893d 621f 083e 7f27 acbd c288 b43d
-0.12222881 0.1391169 -0.02353117 0.15186185 0.034877367 0.08677928 -0.1473578 0.047701403
0.04584821 -0.14822248 0.13471428 0.100370646 0.038369477 -0.058435842 0.06824655 -0.044947237
-0.022171061 -0.17596158 0.09410032 0.08369262 0.1927286 -0.11666913 -0.04824829 -0.08067268
0.043077387 -0.06972624 -0.10503001 -0.07382434 0.08149009 -0.054381464 0.06290359 0.16100743
0.05978485 0.0123390015 0.123243965 0.08031911 0.08740844 0.07974997 -0.09677014 -0.14637555
0.023275018 0.08620162 -0.13723746 -0.117766455 0.09247694 -0.13176703 0.0594877 -0.06724841
0.019534163 -0.14266503 -0.027992811 0.13637708 0.01220115 0.029509213 -0.17069054 0.15545318
0.044435028 0.0064693717 0.08919869 0.039355427 0.023162872 -0.085259154 0.09812117 -0.2195765
-0.067989185 0.0046414114 0.0026542062 0.15152264 0.13463303 0.004635059 0.06545755 -0.031352095
0.0618893 -0.020841893 -0.069701545 0.23286605 -0.16977522 0.07442866 0.16065125 -0.039997265
0.16430062 0.22689073 -0.19045389 0.032220747 0.006552126 0.04108945 0.13301933 -0.07775701
0.066529825 0.10364953 -0.051384874 -0.051893946 -0.05614495 -0.029612605 -0.092984706 -0.04976054
0.08917218 -0.06297938 0.08019306 0.20462485 -0.17209929 -0.053651128 0.081837825 0.1908455
0.20337786 0.10551504 -0.07043668 -0.057185095 0.0680788 -0.22749463 -0.073990226 0.076559536
-0.04657359 -0.048468813 0.081115074 0.107286975 -0.06441088 -0.036565058 0.21113332 0.14310153
-0.0662935 -0.15313876 0.06117965 0.046801217 0.06718468 0.13293222 -0.08405971 0.08815147

net.6.bias f4 [2]
00000000: 33ac 653d 9a06 0b3d
0.056072425 0.033941843

exp_avg f4 [64, 3]
00000000: ff3e d2b3 2968 d133 280c 9433 ebaa 0333
00000010: 7177 1934 0b52 4532 0040 42b3 d18e 36b4
00000020: 9ab8 f8b1 6777 7eb3 60a0 8833 9517 f633
00000030: 316d 97b3 6e0c b933 540a e433 43ab a9b3
00000040: 5166 90b3 67c2 ff32 8ecc 2eb4 5e6b 9ab3
00000050: 9e10 acb3 a705 cd33 7b0e 2d34 2b02 af32
00000060: 4f33 a233 ca4e 18b4 446c e6b3 3178 c933
00000070: e50c a833 b83d 1534 dab1 0034 e62f 9933
00000080: 27fb 7333 0aca 55b4 2819 acb3 e14e 7732
00000090: d4d0 33b4 8f9c a533 6b81 1e34 5501 c433
000000a0: 1cb2 7034 c14d dab2 c4a5 1932 b634 1eb2
000000b0: fd32 c133 9e13 81b3 d035 f8b3 c5e3 8eb3
000000c0: a6d6 0733 8757 1eb4 6d55 f4b3 a7e1 98b3
000000d0: 36cc 9133 971a 3733 f11a 6a33 57c6 c331
000000e0: 0f82 1234 e735 c9b2 22d7 38b4 2ee3 03b2
000000f0: 2acf 12b4 feb2 4b33 da16 f132 fa27 f533
00000100: 6c1d 8d33 9684 0933 4b7e 8133 ec3c 8a32
00000110: 7ffc 3434 d753 55b3 9112 69b3 2d79 8733
00000120: 1f41 cfb3 9dac c5b3 4e94 9cb3 b22d f4b3
00000130: ec34 c3b3 e88c efb2 d881 17b4 57ab 99b3
00000140: b35d f131 cbdf a8b3 7efc 4c33 9ade 86b2
00000150: 3cad 1db4 4de2 d9b3 487a 01b3 7ae4 28b4
00000160: be66 dbb3 fe69 64b3 c67a 9e30 a11f a6b3
00000170: 1d06 b5b2 cce0 aeb3 2b6f 61b2 c145 46b2
00000180: e1db ffb3 5f1f 3db3 2d57 abb3 2f70 1133
00000190: 2ec8 1634 0808 0933 e74e e3b3 39ea 39b4
000001a0: c8ed 4033 29cb fa32 8a32 0bb4 751f 23b3
000001b0: 9c4d 27b3 8503 2434 e74b 3234 68c7 d833
000001c0: 9753 52b4 c994 b0b3 b56c 0534 ebae e133
000001d0: b948 10b2 90c9 b333 16a3 c0b3 6af4 88b2
000001e0: f507 2f34 055c 9b34 6177 cd33 c534 a5b3
000001f0: 4254 3d31 4146 01b3 b018 8832 3972 06b4
00000200: de51 b9b3 e38f 0c34 2cc4 c433 25be fa33
00000210: 497b b5b3 90b8 37b4 6e07 1033 50e0 32b2
00000220: 6aad b830 0345 58b2 0770 d7ae 085c 3033
00000230: 733c 8033 c6d4 1834 f311 4034 8acf 45b3
00000240: 684b 1eb4 87d7 efb4 667a c8b4 3214 47b4
00000250: 5a07 8bb3 2027 0cb4 fd86 9232 4f35 aab2
00000260: 332c 18b3 4811 f0b3 e519 5cb4 7569 26b4
00000270: ed6c deb1 210c 1e34 bb8e 2634 0c12 ef33
00000280: 2f1a eb33 73bf e4b0 c616 fe32 ab78 38b4
00000290: bffa 8db3 5168 a833 f5f3 2634 6f39 1e33
000002a0: 7690 2c33 8a88 bab3 accd 7a33 1a3a 2834
000002b0: b326 c1b3 f6de d6b3 2f5c e133 2fac 4134
000002c0: a8f4 0734 82c2 eeb3 aa69 b6b3 5165 9632
000002d0: e69d 4a34 3510 ae31 ac0c cfb1 5529 f6b2
000002e0: 0e32 55b3 6aa8 0fb3 f8d9 9e33 1546 96b3
000002f0: 1af5 b0b2 5a7a c533 f2e2 8b33 06b4 4bb3
-9.790346e-08 9.7512675e-08 6.893998e-08 3.0656263e-08 1.4292688e-07 1.1485564e-08 -4.5227353e-08 -1.7002027e-07
-7.2387367e-09 -5.924758e-08 6.3621655e-08 1.1459557e-07 -7.051347e-08 8.616995e-08 1.0618956e-07 -7.900828e-08
-6.724134e-08 2.9774311e-08 -1.627943e-07 -7.190714e-08 -8.012397e-08 9.5470845e-08 1.6117149e-07 2.0373667e-08
7.553046e-08 -1.4184766e-07 -1.0729903e-07 9.3816546e-08 7.825455e-08 1.389916e-07 1.1985631e-07 7.1333304e-08
5.6806268e-08 -1.9910672e-07 -8.01395e-08 1.4395227e-08 -1.6746645e-07 7.711889e-08 1.4761979e-07 9.1272035e-08
2.2416538e-07 -2.5413899e-08 8.943463e-09 -9.2087955e-09 8.9965376e-08 -6.010599e-08 -1.15581884e-07 -6.653821e-08
3.162736e-08 -1.4746739e-07 -1.1377674e-07 -7.1190975e-08 6.7892344e-08 4.263219e-08 5.4506874e-08 5.6977956e-09
1.3644625e-07 -2.3423992e-08 -1.72146e-07 -7.676858e-09 -1.3672675e-07 4.7427413e-08 2.8066484e-08 1.1415973e-07
6.571176e-08 3.2018384e-08 6.030003e-08 1.6093018e-08 1.6855664e-07 -4.966918e-08 -5.4266426e-08 6.308469e-08
-9.651034e-08 -9.2049255e-08 -7.2912925e-08 -1.1370447e-07 -9.0900215e-08 -2.7887339e-08 -1.4110208e-07 -7.155784e-08
7.0246755e-09 -7.863817e-08 4.772709e-08 -1.570088e-08 -1.4684787e-07 -1.0146014e-07 -3.0146367e-08 -1.5729339e-07
-1.0216671e-07 -5.3181786e-08 1.1530907e-09 -7.7357306e-08 -2.1073953e-08 -8.143397e-08 -1.3122e-08 -1.1540977e-08
-1.19143586e-07 -4.4033523e-08 -7.978665e-08 3.3862474e-08 1.4042664e-07 3.1905103e-08 -1.05848635e-07 -1.7314677e-07
4.4919744e-08 2.9196217e-08 -1.296377e-07 -3.7980005e-08 -3.8953303e-08 1.527497e-07 1.6605155e-07 1.00945556e-07
-1.9588184e-07 -8.2227025e-08 1.2426138e-07 1.05091964e-07 -8.398438e-09 8.372001e-08 -8.970362e-08 -1.594363e-08
1.630104e-07 2.8937953e-07 9.567771e-08 -7.69301e-08 2.7551015e-09 -3.009905e-08 1.584371e-08 -1.2521276e-07
-8.6296254e-08 1.3090862e-07 9.162645e-08 1.1676119e-07 -8.450895e-08 -1.7110347e-07 3.353437e-08 -1.0411966e-08
1.3437049e-09 -1.2588546e-08 -9.796968e-11 4.1061895e-08 5.97146e-08 1.423351e-07 1.7887923e-07 -4.6056392e-08
-1.474233e-07 -4.4674036e-07 -3.734196e-07 -1.8540666e-07 -6.474029e-08 -1.305275e-07 1.7058023e-08 -1.9814847e-08
-3.5430457e-08 -1.1179014e-07 -2.0498517e-07 -1.549832e-07 -6.473434e-09 1.4719309e-07 1.551188e-07 1.11325875e-07
1.0947803e-07 -1.6643597e-09 2.9579848e-08 -1.7180234e-07 -6.6114346e-08 7.842085e-08 1.5548706e-07 3.6839477e-08
4.0178257e-08 -8.686136e-08 5.839472e-08 1.5667356e-07 -8.994302e-08 -1.0005708e-07 1.0494147e-07 1.8037166e-07
1.266186e-07 -1.11181194e-07 -8.4942556e-08 1.7508372e-08 1.8870159e-07 5.065909e-09 -6.0259335e-09 -2.8656965e-08
-4.963845e-08 -3.3447954e-08 7.3970966e-08 -6.997667e-08 -2.0600556e-08 9.195783e-08 6.513973e-08 -4.742835e-08

exp_avg_sq f4 [64, 3]
00000000: 7c49 a72c 3ea3 192d b927 882b a638 4e2a
00000010: c7d0 252b 2366 e328 7be2 132c 4f55 c92c
00000020: 64d9 be2b 4d93 952c bc8b 002c 0824 132b
00000030: babf a92b 8975 062c c585 522b ce4b 8c2a
00000040: 2a25 802b dc07 9429 05c1 672a 1767 5b2b
00000050: 3fb7 402b 6823 2b2c 02c3 802c c74b fe29
00000060: e98c f42c 6241 f62c ccd1 d02b 5fdf ba2b
00000070: 3a3f 432b 8ba4 382b b307 202a 3d1d 862b
00000080: 2eec c62a 6cd2 152e c7d9 1b2d 5a55 112c
00000090: adeb 412c b427 e02b 97dc a62b a2e5 422b
000000a0: b2f3 382c 93f9 7b2a 20ee 2f2b a001 b62a
000000b0: 6a61 b12a 9299 1b2c b628 772c 1a9b bc2a
000000c0: 70dd 352c 6bda bc2c fa2f e42b 98e4 8c29
000000d0: 7eab 342c 88b9 1b2b 6b8f 5d2b 6546 1e2c
000000e0: d810 a42b f4a6 432c 756c ff2b 4bdb 942b
000000f0: 4346 842b c2dc 0b2b 6e55 ac2a ddee 242b
00000100: 8d81 832b 77ee 182b 742f 672b 3689 ab2b
00000110: d503 d42b 7c51 202d c2ea a72c 0a49 912b
00000120: 6d64 732c 1279 962b 5651 a62b 4cf7 742d
00000130: 1ba6 042d 1198 092a 328c c22c c71e 012d
00000140: 6be2 b02a 4120 492d 7448 062d 0907 eb2b
00000150: 1708 172a dca5 a82a bddf bc29 0165 382c
00000160: ea03 1f2b 218b d12a a2c0 b62b c5d4 d42b
00000170: b3ff 152b 2095 452c 33c0 812b b7a1 732b
00000180: 3cca 712c 449b bd2b ef9d f62a 59ae c52c
00000190: 3965 c12c cabb cd2b 3926 022c 7af1 892b
000001a0: 4667 be2a 5ad4 6b2b 1c02 a02b 71c9 8c2a
000001b0: 9a1f ce2c 011e e92c a11b ff2b 995f 092c
000001c0: 7943 6a2d dd39 f62b 0bc5 402c f630 fd2b
000001d0: a0a2 212b 1b96 292c 45b6 982c 6c0d ac2a
000001e0: 0cd9 792c d5bf 042d 5550 f42a 96c8 f82c
000001f0: b722 7d2c 159c 992b 6ebc 9c2b b337 472c
00000200: c2cc 842b 37d8 ea2b e89b b22a 2e57 3c2b
00000210: 7ff5 9c2b c418 ba2b 73c7 d42a 3221 0f2c
00000220: 0d16 c32b f6eb 812a cf73 bc2b 25ba ae2a
00000230: 2b81 1b2b 03b1 3b2c 05d2 ec2b 2482 332b
00000240: 1b14 9d2d 3cc4 c12d 5570 e52c 3fb7 292c
00000250: dea1 c42a 8f2d 972b 0a4f a42b f06b 202b
00000260: d6f9 192a deab 782b 56b6 5f2c 1bb4 8f2b
00000270: b2c9 452b fc85 652c b9b1 ea2b d301 052c
00000280: 88f0 f72a 83f5 fb2a 9e0a 632a 5f01 332c
00000290: d9fc 802b ebaa 402c a833 ee2b 7bd0 712b
000002a0: 6358 f22b ee5c 8b2c a5c2 452b f303 622b
000002b0: 60f6 0a2c 6ddd 942b 4ded 2f2c 519c a22b
000002c0: 4915 e32b f233 232b 1625 662b 892e e62a
000002d0: dd66 852c 503c 082c 043e 3a2b 3a75 3f2b
000002e0: 69c1 062b 6690 622a 3963 ff2b edf3 fe2b
000002f0: 5ba3 802a 006b b12b d22b e52a 42f5 3f2a
4.754584e-12 8.73329e-12 9.674406e-13 1.8316129e-13 5.890951e-13 2.5246357e-14 2.1015678e-12 5.7222348e-12
1.356065e-12 4.2511884e-12 1.8267462e-12 5.2274894e-13 1.2061387e-12 1.910779e-12 7.479263e-13 2.4921596e-13
9.105262e-13 6.573884e-14 2.0583889e-13 7.7947495e-13 6.846641e-13 2.4320216e-12 3.659629e-12 1.1293011e-13
6.9505413e-12 6.9989995e-12 1.4837519e-12 1.3278093e-12 6.936566e-13 6.559828e-13 1.4213526e-13 9.529388e-13
3.5335748e-13 3.406557e-11 8.859086e-12 2.065312e-12 2.7557776e-12 1.5927177e-12 1.1856235e-12 6.9241325e-13
2.628325e-12 2.2379867e-13 6.2502954e-13 3.2330822e-13 3.150911e-13 2.2112073e-12 3.512341e-12 3.3503132e-13
2.584457e-12 5.3675306e-12 1.6213691e-12 6.2569036e-14 2.5674736e-12 5.532454e-13 7.8714005e-13 2.2492227e-12
1.1657576e-12 2.7803844e-12 1.8148943e-12 1.0576899e-12 9.398666e-13 4.9689083e-13 3.0612616e-13 5.8595994e-13
9.344067e-13 5.4332184e-13 8.213354e-13 1.2188364e-12 1.506457e-12 9.11304e-12 4.772489e-12 1.0323142e-12
3.4588124e-12 1.0691745e-12 1.1817585e-12 1.3924705e-11 7.540214e-12 1.2220803e-13 5.5293764e-12 7.339635e-12
3.142099e-13 1.1432689e-11 7.633106e-12 1.6699707e-12 1.3414301e-13 2.9957883e-13 8.3876896e-14 2.6204041e-12
5.649358e-13 3.7222398e-13 1.2985344e-12 1.5122561e-12 5.329029e-13 2.8078165e-12 9.219347e-13 8.6555367e-13
3.4360422e-12 1.3472353e-12 4.3807967e-13 5.6184332e-12 5.496628e-12 1.4618248e-12 1.849533e-12 9.801459e-13
3.382244e-13 8.378347e-13 1.1369269e-12 2.5008774e-13 5.8583806e-12 6.6255894e-12 1.8126508e-12 1.9521938e-12
1.3316342e-11 1.7495412e-12 2.7394222e-12 1.7990321e-12 5.742438e-13 2.409967e-12 4.340336e-12 3.056265e-13
3.5505513e-12 7.5459266e-12 4.3398848e-13 7.0708535e-12 3.5972733e-12 1.0914625e-12 1.1136766e-12 2.831052e-12
9.435996e-13 1.6686712e-12 3.1727333e-13 6.6912003e-13 1.1152606e-12 1.3222969e-12 3.779716e-13 2.033995e-12
1.3861704e-12 2.3078734e-13 1.3390347e-12 3.1037773e-13 5.524632e-13 2.667256e-12 1.6827101e-12 6.377418e-13
1.7857762e-11 2.2028705e-11 6.521043e-12 2.4118066e-12 3.4928912e-13 1.074184e-12 1.1674839e-12 5.699321e-13
1.3675809e-13 8.8345813e-13 3.1791423e-12 1.021075e-12 7.026837e-13 3.2617234e-12 1.6676028e-12 1.890145e-12
4.4042916e-13 4.4756915e-13 2.0165334e-13 2.543819e-12 9.165126e-13 2.737972e-12 1.6925255e-12 8.5909724e-13
1.7219666e-12 3.960935e-12 7.0258583e-13 8.029681e-13 1.9747745e-12 1.057749e-12 2.5000724e-12 1.1554179e-12
1.6135228e-12 5.798132e-13 8.176388e-13 4.0888498e-13 3.7915075e-12 1.9360243e-12 6.616654e-13 6.8019516e-13
4.7874774e-13 2.012293e-13 1.814638e-12 1.8115488e-12 2.2850718e-13 1.2606305e-12 4.0708978e-13 1.7049299e-13

exp_avg f4 [64]
00000000: ba0c 9433 0050 4532 48b0 f8b1 fd15 f633
00000010: 800b e433 cfc0 ff32 c40f acb3 1503 af32
00000020: 656b e6b3 183e 1534 4bf9 7333 185e 7732
00000030: 3f81 1e34 5a4b dab2 fe33 c133 d2e3 8eb3
00000040: 6255 f4b3 011c 3733 1782 1234 76dd 03b2
00000050: c315 f132 4584 0933 d1fb 3434 6e79 8733
00000060: 9793 9cb3 5b8e efb2 4055 f131 82dc 86b2
00000070: cf7a 01b3 f26a 64b3 9b07 b5b2 ff44 46b2
00000080: 5e58 abb3 e809 0933 8aed 4033 0f20 23b3
00000090: 8f4b 3234 9c94 b0b3 ae49 10b2 2ff5 88b2
000000a0: 4a77 cd33 9145 01b3 a151 b9b3 d5be fa33
000000b0: b406 1033 6645 58b2 f83b 8033 ddcf 45b3
000000c0: 237a c8b4 0427 0cb4 812b 18b3 4c69 26b4
000000d0: a98e 2634 6dc8 e4b0 5afa 8db3 a63a 1e33
000000e0: 9acc 7a33 30df d6b3 31f5 0734 0967 9632
000000f0: 7b0d cfb1 33a8 0fb3 def5 b0b2 78b4 4bb3
6.894102e-08 1.1485099e-08 -7.237791e-09 1.1459267e-07 1.0619169e-07 2.9773586e-08 -8.012242e-08 2.0374083e-08
-1.07297446e-07 1.3899296e-07 5.6804577e-08 1.4398687e-08 1.4761916e-07 -2.5412806e-08 8.99672e-08 -6.6538306e-08
-1.13776665e-07 4.2633477e-08 1.3644636e-07 -7.675558e-09 2.8065989e-08 3.2018097e-08 1.6855417e-07 6.308515e-08
-7.2911625e-08 -2.7887998e-08 7.023715e-09 -1.5699928e-08 -3.0146847e-08 -5.3182653e-08 -2.1074632e-08 -1.1540805e-08
-7.978882e-08 3.1906808e-08 4.4919524e-08 -3.7980552e-08 1.660503e-07 -8.2226705e-08 -8.398656e-09 -1.594398e-08
9.567755e-08 -3.0098423e-08 -8.629582e-08 1.1676244e-07 3.353371e-08 -1.2588634e-08 5.971373e-08 -4.6056687e-08
-3.734177e-07 -1.305271e-07 -3.5429824e-08 -1.5498262e-07 1.5511854e-07 -1.6646148e-09 -6.611363e-08 3.6840582e-08
5.8393745e-08 -1.0005749e-07 1.2662055e-07 1.7509153e-08 -6.0260255e-09 -3.344776e-08 -2.0600904e-08 -4.7428756e-08

exp_avg_sq f4 [64]
00000000: b827 882b 2a66 e328 61d9 be2b 0624 132b
00000010: c885 522b df07 9429 44b7 402b ca4b fe29
00000020: cbd1 d02b 7ea4 382b 34ec c62a 5b55 112c
00000030: 96dc a62b 9df9 7b2a 6361 b12a 0c9b bc2a
00000040: f52f e42b 85b9 1b2b da10 a42b 56db 942b
00000050: 7655 ac2a 7aee 182b cd03 d42b 0b49 912b
00000060: 4351 a62b 1b98 092a 75e2 b02a 0a07 eb2b
00000070: bbdf bc29 1a8b d12a beff 152b c0a1 732b
00000080: de9d f62a c6bb cd2b 4f67 be2a 73c9 8c2a
00000090: a11b ff2b dd39 f62b a4a2 212b 710d ac2a
000000a0: 5850 f42a 189c 992b c3cc 842b 2857 3c2b
000000b0: 63c7 d42a f5eb 812a 3081 1b2b 2682 332b
000000c0: 5770 e52c 8b2d 972b cef9 192a 19b4 8f2b
000000d0: c5b1 ea2b 84f5 fb2a dffc 802b 7ed0 712b
000000e0: 9fc2 452b 6cdd 942b 5315 e32b 922e e62a
000000f0: fd3d 3a2b 6c90 622a 5ba3 802a 45f5 3f2a
9.674405e-13 2.524637e-14 1.3560647e-12 5.2274884e-13 7.4792646e-13 6.573886e-14 6.8466435e-13 1.1293013e-13
1.4837518e-12 6.559821e-13 3.5335764e-13 2.0653121e-12 1.1856234e-12 2.237988e-13 3.1509092e-13 3.3503094e-13
1.6213685e-12 5.532452e-13 1.1657578e-12 1.057691e-12 3.0612638e-13 5.43322e-13 1.5064561e-12 1.0323143e-12
1.1817564e-12 1.2220817e-13 3.1421017e-13 1.6699708e-12 8.387688e-14 3.722238e-13 5.329035e-13 8.6555416e-13
4.380792e-13 1.4618244e-12 3.3822465e-13 2.500878e-13 1.8126508e-12 1.7495412e-12 5.74244e-13 3.0562664e-13
4.3398857e-13 1.0914629e-12 9.435997e-13 6.691197e-13 3.7797117e-13 2.307873e-13 5.5246346e-13 6.377419e-13
6.5210437e-12 1.0741836e-12 1.3675798e-13 1.0210748e-12 1.6676041e-12 4.4756917e-13 9.165133e-13 8.590974e-13
7.025855e-13 1.0577489e-12 1.6135239e-12 4.0888522e-13 6.61665e-13 2.0122939e-13 2.2850718e-13 1.7049303e-13

exp_avg f4 [64, 64]
00000000: f75c 8a32 4319 cf33 d5fd cc33 9377 ba33
00000010: c02f 8333 e1d5 deb3 066f a8b3 c1f7 05b3
00000020: bcb4 a7b2 6963 7d33 7324 6133 6928 7533
00000030: c5f3 1332 82c7 edb1 ddd2 e533 d3bf d1b2
00000040: 7e94 8f31 c065 eeb3 5b05 2d33 8153 d1b1
00000050: a0a9 e1b3 f931 6a33 4e1d a632 7ad4 1234
00000060: 8b34 cc32 a79a bc31 2a18 27b3 0825 d3b3
00000070: 17c1 3db3 f171 80b3 17a3 37b3 e736 5bb3
00000080: 0be1 dcb3 d8ef b3b3 e23b bdb3 a425 de32
00000090: 8efe 42b3 df0c e833 7b87 2d33 cb72 1533
000000a0: dd2b c5b0 5cbd 0a33 ffe0 b3b3 dd2e 0034
000000b0: f1c8 c4b1 63e4 e8b2 a450 a733 455a 5833
000000c0: 4fbb 8db3 a444 a9b3 de9e 30b1 ee21 75b3
000000d0: e1df db33 1178 cd33 b62f 10b2 6965 aa32
000000e0: 8a59 1534 ce96 fa32 9086 2133 e799 41b3
000000f0: aff1 22b1 916c 0bb4 cc0c e233 ddb6 f633
00000100: d3f4 03b3 3c99 7e33 79db 9933 5be5 dfb2
00000110: 6498 c532 677f f9b3 1e7c dbb3 bded 8d33
00000120: 717c fe33 8b5b 3e33 febd 5f34 836e b5b3
00000130: b183 96b3 903f 27b4 8233 65b3 de56 f533
00000140: a0b6 b733 a081 00b4 a8bc 4934 c391 b333
00000150: 2187 27b4 c0ea 2434 21c1 4234 f0ab 0032
00000160: a872 10b4 436e a0b3 9013 6eb2 1d2c 4ab3
00000170: 0a92 b2b3 837d b732 0813 ae33 280d 40b3
00000180: d5dd abb2 8e3f 85b3 becf 0db2 2a8e 4e34
00000190: c5db d0b3 dfce c833 3311 abb3 0686 5232
000001a0: d305 2834 6326 14b4 58b0 feb3 7dad 18b3
000001b0: dcb5 1734 7fa5 df33 b35f 6830 04d6 80b3
000001c0: 2dd7 bfb3 48ed 4cb3 1396 65b3 539d 05b4
000001d0: d62f b133 c4b0 8d32 9ebf 0134 b8db 20b4
000001e0: 0c21 bf31 fcd6 2334 dba4 cfb3 8d05 0434
000001f0: dd07 0331 adb9 99b2 0ffa ee30 f3a4 fd2f
00000200: 74eb 9ab2 b7fa b9b3 a40e 81b3 d169 f4b2
00000210: 8c35 05b3 cb52 5433 4408 9833 73c1 2932
00000220: b714 76b2 103b 1cb3 9af7 b4b3 48bb 07b2
00000230: 9e42 b632 38a6 0233 d97e 05b3 0c07 8a32
00000240: 6451 ccb2 6846 4b33 d823 84b3 8c57 5ab2
00000250: ffc2 f632 1cf4 c7b3 4828 61b3 25ab aeb3
00000260: b50b 92b1 af53 8532 3c3c b132 763d bd33
00000270: 3ea4 ce33 7120 ab32 a6e5 c72f 08a1 0133
00000280: d294 8d33 b96a 2b33 c149 ce32 9681 c8b3
00000290: da84 3b33 714b 46b3 0580 b1b2 d634 8ab2
000002a0: 7143 f8b2 3fc8 2032 04a2 4833 8ede 46b3
000002b0: f417 aeb2 d669 64b0 3c48 05b3 0f34 8eb2
000002c0: a438 7f33 0fa6 6833 2841 4231 00c2 4233
000002d0: 7740 65b3 18ad 9f30 7252 afb2 a978 6532
000002e0: 8ddb 86b3 71f1 a0b2 c0b1 db31 f6b5 2032
000002f0: 9be9 31b2 ef39 6733 7b08 5db3 65bf 4eb3
00000300: 448c 4230 c925 dc32 4297 9b32 8a2f 1c33
00000310: 58b3 d232 5930 65b2 a5b8 60b2 33c0 08b2
00000320: 39ae efb1 4481 af32 85a4 da31 455c c332
00000330: 7b80 3932 b679 46b1 02ae 2533 b1b3 1ab1
00000340: b318 b7b1 5752 6bb2 f9cb bc31 3dcd 59b1
00000350: 5c78 deb1 b722 e131 c913 b831 237e 3233
00000360: 6c87 0d30 425b af31 3cf6 00b2 bf4c fcb2
00000370: 18eb b9b2 a0eb 9cb2 7230 a9b2 834a aab2
00000380: 3ab5 09b3 5dde 64b2 bf94 7ab2 4fb7 0732
00000390: 3bac 4cb2 d3a7 7e32 f46c 9831 10ff 0d32
000003a0: d5ff 2d31 d551 3032 26fa 40b2 53e8 3733
000003b0: 41a2 8c2f a1a0 08b2 0f27 0233 a9c3 2832
000003c0: 2aa9 88b2 ff3c c9b2 81b5 27b2 8834 10b2
000003d0: a25a 7d32 9318 a332 1f68 a9b1 2f28 15b1
000003e0: 7adc 1833 5da1 99b0 c4bd 9332 5f8c b5b2
000003f0: 00e3 51b2 dd69 eab2 f2a7 0b33 4f25 0033
1.610759e-08 9.643784e-08 9.545662e-08 8.6830504e-08 6.1088485e-08 -1.0376585e-07 -7.843305e-08 -3.1191806e-08
-1.9523547e-08 5.8996566e-08 5.2420045e-08 5.708026e-08 8.611953e-09 -6.9202892e-09 1.0701999e-07 -2.4418034e-08
4.1787294e-09 -1.1101247e-07 4.0284572e-08 -6.092194e-09 -1.05082336e-07 5.452782e-08 1.933827e-08 1.3674608e-07
2.377262e-08 5.489102e-09 -3.8904695e-08 -9.832189e-08 -4.4180606e-08 -5.98119e-08 -4.2756337e-08 -5.1039844e-08
-1.02854834e-07 -8.3789644e-08 -8.811891e-08 2.5861318e-08 -4.540066e-08 1.0805683e-07 4.040292e-08 3.479617e-08
-1.4346103e-09 3.230285e-08 -8.3762636e-08 1.1937978e-07 -5.727195e-09 -2.7112213e-08 7.791212e-08 5.037352e-08
-6.5998954e-08 -7.8821614e-08 -2.5701676e-09 -5.7074367e-08 1.02387055e-07 9.567896e-08 -8.392751e-09 1.983672e-08
1.390928e-07 2.9172408e-08 3.7608118e-08 -4.5076288e-08 -2.3711484e-09 -1.298488e-07 1.0526273e-07 1.148853e-07
-3.072348e-08 5.927835e-08 7.1645395e-08 -2.6064916e-08 2.3003118e-08 -1.16181404e-07 -1.0220559e-07 6.6090685e-08
1.18504325e-07 4.432108e-08 2.0837612e-07 -8.448571e-08 -7.008874e-08 -1.5576211e-07 -5.3365063e-08 1.14245026e-07
8.554821e-08 -1.1968086e-07 1.8788216e-07 8.361851e-08 -1.5602247e-07 1.5359092e-07 1.8137918e-07 7.489675e-09
-1.3452757e-07 -7.470637e-08 -1.3857871e-08 -4.707191e-08 -8.315335e-08 2.136108e-08 8.105968e-08 -4.471545e-08
-2.0007898e-08 -6.204856e-08 -8.254515e-09 1.9236964e-07 -9.7257306e-08 9.3508554e-08 -7.9659365e-08 1.2254082e-08
1.5648338e-07 -1.3797539e-07 -1.18598734e-07 -3.5548045e-08 1.4129131e-07 1.041435e-07 8.4537105e-10 -5.999394e-08
-8.933271e-08 -4.7713257e-08 -5.345471e-08 -1.2443824e-07 8.250906e-08 1.6494944e-08 1.2083771e-07 -1.4981094e-07
5.5625886e-09 1.5258769e-07 -9.669176e-08 1.2295477e-07 1.9067479e-09 -1.789598e-08 1.738785e-09 4.6137635e-10
-1.8035031e-08 -8.6603386e-08 -6.009694e-08 -2.8453458e-08 -3.1015176e-08 4.9435396e-08 7.079555e-08 9.88108e-09
-1.4323795e-08 -3.6375297e-08 -8.4269416e-08 -7.900617e-09 2.1217883e-08 3.041916e-08 -3.1081843e-08 1.6068519e-08
-2.3785738e-08 4.7328655e-08 -6.153249e-08 -1.2709176e-08 2.8726843e-08 -9.311063e-08 -5.242353e-08 -8.1336374e-08
-4.25049e-09 1.5521293e-08 2.0632903e-08 8.812178e-08 9.622498e-08 1.9921773e-08 3.6361064e-10 3.018161e-08
6.5928944e-08 3.9911104e-08 2.4015096e-08 -9.336797e-08 4.3660158e-08 -4.616908e-08 -2.0663729e-08 -1.6089341e-08
-2.8901669e-08 9.358756e-09 4.671348e-08 -4.630288e-08 -2.0267159e-08 -8.309632e-10 -3.1032172e-08 -1.655465e-08
5.942333e-08 5.416774e-08 2.8267753e-09 4.5345587e-08 -5.3376848e-08 1.1617969e-09 -2.0410173e-08 1.3356989e-08
-6.279797e-08 -1.8736246e-08 6.3939467e-09 9.354599e-09 -1.0355872e-08 5.383657e-08 -5.1463285e-08 -4.8137185e-08
7.077612e-10 2.5628554e-08 1.8113159e-08 3.6364817e-08 2.4528774e-08 -1.3340547e-08 -1.3080499e-08 -7.959943e-09
-6.9756223e-09 2.0431465e-08 6.3633387e-09 2.2742947e-08 1.079763e-08 -2.8881977e-09 3.8575315e-08 -2.2512092e-09
-5.328809e-09 -1.3697522e-08 5.494709e-09 -3.169432e-09 -6.4747336e-09 6.5523085e-09 5.357354e-09 4.1558575e-08
5.148795e-10 5.103545e-09 -7.506568e-09 -2.9371561e-08 -2.1643743e-08 -1.826794e-08 -1.969622e-08 -1.9824489e-08
-3.2062623e-08 -1.3321906e-08 -1.4585736e-08 7.899714e-09 -1.19135235e-08 1.4822905e-08 4.4361688e-09 8.265275e-09
2.5320237e-09 1.0263155e-08 -1.1232748e-08 4.2819305e-08 2.558114e-10 -7.952765e-09 3.0303507e-08 9.823375e-09
-1.590941e-08 -2.3427217e-08 -9.761949e-09 -8.393847e-09 1.4747146e-08 1.8986873e-08 -4.9303845e-09 -2.1705195e-09
3.559078e-08 -1.1178077e-09 1.7199348e-08 -2.1135007e-08 -1.2217015e-08 -2.7289326e-08 3.2516205e-08 2.9836254e-08
